{"format": "graph-model", "generatedBy": "2.9.0", "convertedBy": "TensorFlow.js Converter v3.12.0", "signature": {"inputs": {"inputs": {"name": "inputs:0", "dtype": "DT_INT32", "tensorShape": {"dim": [{"size": "-1"}, {"size": "16"}]}}}, "outputs": {"output_0": {"name": "Identity:0", "dtype": "DT_FLOAT", "tensorShape": {"dim": [{"size": "-1"}, {"size": "1024"}]}}}}, "modelTopology": {"node": [{"name": "StatefulPartitionedCall/Const_1801", "op": "Const", "attr": {"dtype": {"type": "DT_FLOAT"}, "value": {"tensor": {"dtype": "DT_FLOAT", "tensorShape": {}}}}}, {"name": "StatefulPartitionedCall/Sum_61/reduction_indices", "op": "Const", "attr": {"value": {"tensor": {"dtype": "DT_INT32", "tensorShape": {"dim": [{"size": "1"}]}}}, "dtype": {"type": "DT_INT32"}}}, {"name": "ConstantFolding/StatefulPartitionedCall/truediv_73_recip", "op": "Const", "attr": {"value": {"tensor": {"dtype": "DT_FLOAT", "tensorShape": {}}}, "dtype": {"type": "DT_FLOAT"}}}, {"name": "StatefulPartitionedCall/Const_1811", "op": "Const", "attr": {"value": {"tensor": {"dtype": "DT_INT32", "tensorShape": {}}}, "dtype": {"type": "DT_INT32"}}}, {"name": "StatefulPartitionedCall/Const_1813", "op": "Const", "attr": {"value": {"tensor": {"dtype": "DT_INT32", "tensorShape": {}}}, "dtype": {"type": "DT_INT32"}}}, {"name": "StatefulPartitionedCall/Const_1815", "op": "Const", "attr": {"value": {"tensor": {"dtype": "DT_FLOAT", "tensorShape": {}}}, "dtype": {"type": "DT_FLOAT"}}}, {"name": "StatefulPartitionedCall/Reshape_195", "op": "Const", "attr": {"value": {"tensor": {"dtype": "DT_FLOAT", "tensorShape": {"dim": [{"size": "1"}, {"size": "1"}, {"size": "384"}]}}}, "dtype": {"type": "DT_FLOAT"}}}, {"name": "StatefulPartitionedCall/Reshape_192", "op": "Const", "attr": {"value": {"tensor": {"dtype": "DT_FLOAT", "tensorShape": {"dim": [{"size": "1"}, {"size": "1"}, {"size": "384"}]}}}, "dtype": {"type": "DT_FLOAT"}}}, {"name": "StatefulPartitionedCall/Const_1789", "op": "Const", "attr": {"value": {"tensor": {"dtype": "DT_FLOAT", "tensorShape": {}}}, "dtype": {"type": "DT_FLOAT"}}}, {"name": "StatefulPartitionedCall/Const_1783", "op": "Const", "attr": {"dtype": {"type": "DT_FLOAT"}, "value": {"tensor": {"dtype": "DT_FLOAT", "tensorShape": {}}}}}, {"name": "StatefulPartitionedCall/Const_1749", "op": "Const", "attr": {"value": {"tensor": {"dtype": "DT_FLOAT", "tensorShape": {}}}, "dtype": {"type": "DT_FLOAT"}}}, {"name": "StatefulPartitionedCall/Sum_59/reduction_indices", "op": "Const", "attr": {"dtype": {"type": "DT_INT32"}, "value": {"tensor": {"dtype": "DT_INT32", "tensorShape": {"dim": [{"size": "1"}]}}}}}, {"name": "ConstantFolding/StatefulPartitionedCall/truediv_71_recip", "op": "Const", "attr": {"dtype": {"type": "DT_FLOAT"}, "value": {"tensor": {"dtype": "DT_FLOAT", "tensorShape": {}}}}}, {"name": "StatefulPartitionedCall/Const_1759", "op": "Const", "attr": {"value": {"tensor": {"dtype": "DT_INT32", "tensorShape": {}}}, "dtype": {"type": "DT_INT32"}}}, {"name": "StatefulPartitionedCall/Const_1761", "op": "Const", "attr": {"value": {"tensor": {"dtype": "DT_INT32", "tensorShape": {}}}, "dtype": {"type": "DT_INT32"}}}, {"name": "StatefulPartitionedCall/Const_1763", "op": "Const", "attr": {"dtype": {"type": "DT_FLOAT"}, "value": {"tensor": {"dtype": "DT_FLOAT", "tensorShape": {}}}}}, {"name": "StatefulPartitionedCall/Reshape_189", "op": "Const", "attr": {"dtype": {"type": "DT_FLOAT"}, "value": {"tensor": {"dtype": "DT_FLOAT", "tensorShape": {"dim": [{"size": "1"}, {"size": "1"}, {"size": "384"}]}}}}}, {"name": "StatefulPartitionedCall/Reshape_186", "op": "Const", "attr": {"dtype": {"type": "DT_FLOAT"}, "value": {"tensor": {"dtype": "DT_FLOAT", "tensorShape": {"dim": [{"size": "1"}, {"size": "1"}, {"size": "384"}]}}}}}, {"name": "StatefulPartitionedCall/jax2tf_arg_67/ReadVariableOp", "op": "Const", "attr": {"value": {"tensor": {"dtype": "DT_FLOAT", "tensorShape": {"dim": [{"size": "384"}, {"size": "6"}, {"size": "64"}]}}}, "dtype": {"type": "DT_FLOAT"}}}, {"name": "StatefulPartitionedCall/Reshape_183", "op": "Const", "attr": {"dtype": {"type": "DT_FLOAT"}, "value": {"tensor": {"dtype": "DT_FLOAT", "tensorShape": {"dim": [{"size": "1"}, {"size": "1"}, {"size": "6"}, {"size": "64"}]}}}}}, {"name": "StatefulPartitionedCall/jax2tf_arg_65/ReadVariableOp", "op": "Const", "attr": {"value": {"tensor": {"dtype": "DT_FLOAT", "tensorShape": {"dim": [{"size": "384"}, {"size": "6"}, {"size": "64"}]}}}, "dtype": {"type": "DT_FLOAT"}}}, {"name": "StatefulPartitionedCall/Reshape_181", "op": "Const", "attr": {"dtype": {"type": "DT_FLOAT"}, "value": {"tensor": {"dtype": "DT_FLOAT", "tensorShape": {"dim": [{"size": "1"}, {"size": "1"}, {"size": "6"}, {"size": "64"}]}}}}}, {"name": "ConstantFolding/StatefulPartitionedCall/truediv_68_recip", "op": "Const", "attr": {"value": {"tensor": {"dtype": "DT_FLOAT", "tensorShape": {}}}, "dtype": {"type": "DT_FLOAT"}}}, {"name": "StatefulPartitionedCall/Const_1653", "op": "Const", "attr": {"value": {"tensor": {"dtype": "DT_FLOAT", "tensorShape": {}}}, "dtype": {"type": "DT_FLOAT"}}}, {"name": "StatefulPartitionedCall/Sum_56/reduction_indices", "op": "Const", "attr": {"dtype": {"type": "DT_INT32"}, "value": {"tensor": {"dtype": "DT_INT32", "tensorShape": {"dim": [{"size": "1"}]}}}}}, {"name": "ConstantFolding/StatefulPartitionedCall/truediv_67_recip", "op": "Const", "attr": {"dtype": {"type": "DT_FLOAT"}, "value": {"tensor": {"dtype": "DT_FLOAT", "tensorShape": {}}}}}, {"name": "StatefulPartitionedCall/Const_1663", "op": "Const", "attr": {"dtype": {"type": "DT_INT32"}, "value": {"tensor": {"dtype": "DT_INT32", "tensorShape": {}}}}}, {"name": "StatefulPartitionedCall/Const_1665", "op": "Const", "attr": {"value": {"tensor": {"dtype": "DT_INT32", "tensorShape": {}}}, "dtype": {"type": "DT_INT32"}}}, {"name": "StatefulPartitionedCall/Const_1667", "op": "Const", "attr": {"value": {"tensor": {"dtype": "DT_FLOAT", "tensorShape": {}}}, "dtype": {"type": "DT_FLOAT"}}}, {"name": "StatefulPartitionedCall/Reshape_179", "op": "Const", "attr": {"value": {"tensor": {"dtype": "DT_FLOAT", "tensorShape": {"dim": [{"size": "1"}, {"size": "1"}, {"size": "384"}]}}}, "dtype": {"type": "DT_FLOAT"}}}, {"name": "StatefulPartitionedCall/Reshape_176", "op": "Const", "attr": {"value": {"tensor": {"dtype": "DT_FLOAT", "tensorShape": {"dim": [{"size": "1"}, {"size": "1"}, {"size": "384"}]}}}, "dtype": {"type": "DT_FLOAT"}}}, {"name": "StatefulPartitionedCall/Const_1641", "op": "Const", "attr": {"value": {"tensor": {"dtype": "DT_FLOAT", "tensorShape": {}}}, "dtype": {"type": "DT_FLOAT"}}}, {"name": "StatefulPartitionedCall/Const_1635", "op": "Const", "attr": {"dtype": {"type": "DT_FLOAT"}, "value": {"tensor": {"dtype": "DT_FLOAT", "tensorShape": {}}}}}, {"name": "StatefulPartitionedCall/Const_1601", "op": "Const", "attr": {"dtype": {"type": "DT_FLOAT"}, "value": {"tensor": {"dtype": "DT_FLOAT", "tensorShape": {}}}}}, {"name": "StatefulPartitionedCall/Sum_54/reduction_indices", "op": "Const", "attr": {"value": {"tensor": {"dtype": "DT_INT32", "tensorShape": {"dim": [{"size": "1"}]}}}, "dtype": {"type": "DT_INT32"}}}, {"name": "ConstantFolding/StatefulPartitionedCall/truediv_65_recip", "op": "Const", "attr": {"dtype": {"type": "DT_FLOAT"}, "value": {"tensor": {"dtype": "DT_FLOAT", "tensorShape": {}}}}}, {"name": "StatefulPartitionedCall/Const_1611", "op": "Const", "attr": {"value": {"tensor": {"dtype": "DT_INT32", "tensorShape": {}}}, "dtype": {"type": "DT_INT32"}}}, {"name": "StatefulPartitionedCall/Const_1613", "op": "Const", "attr": {"dtype": {"type": "DT_INT32"}, "value": {"tensor": {"dtype": "DT_INT32", "tensorShape": {}}}}}, {"name": "StatefulPartitionedCall/Const_1615", "op": "Const", "attr": {"dtype": {"type": "DT_FLOAT"}, "value": {"tensor": {"dtype": "DT_FLOAT", "tensorShape": {}}}}}, {"name": "StatefulPartitionedCall/Reshape_173", "op": "Const", "attr": {"value": {"tensor": {"dtype": "DT_FLOAT", "tensorShape": {"dim": [{"size": "1"}, {"size": "1"}, {"size": "384"}]}}}, "dtype": {"type": "DT_FLOAT"}}}, {"name": "StatefulPartitionedCall/Reshape_170", "op": "Const", "attr": {"value": {"tensor": {"dtype": "DT_FLOAT", "tensorShape": {"dim": [{"size": "1"}, {"size": "1"}, {"size": "384"}]}}}, "dtype": {"type": "DT_FLOAT"}}}, {"name": "StatefulPartitionedCall/jax2tf_arg_51/ReadVariableOp", "op": "Const", "attr": {"value": {"tensor": {"dtype": "DT_FLOAT", "tensorShape": {"dim": [{"size": "384"}, {"size": "6"}, {"size": "64"}]}}}, "dtype": {"type": "DT_FLOAT"}}}, {"name": "StatefulPartitionedCall/Reshape_167", "op": "Const", "attr": {"value": {"tensor": {"dtype": "DT_FLOAT", "tensorShape": {"dim": [{"size": "1"}, {"size": "1"}, {"size": "6"}, {"size": "64"}]}}}, "dtype": {"type": "DT_FLOAT"}}}, {"name": "StatefulPartitionedCall/jax2tf_arg_49/ReadVariableOp", "op": "Const", "attr": {"dtype": {"type": "DT_FLOAT"}, "value": {"tensor": {"dtype": "DT_FLOAT", "tensorShape": {"dim": [{"size": "384"}, {"size": "6"}, {"size": "64"}]}}}}}, {"name": "StatefulPartitionedCall/Reshape_165", "op": "Const", "attr": {"dtype": {"type": "DT_FLOAT"}, "value": {"tensor": {"dtype": "DT_FLOAT", "tensorShape": {"dim": [{"size": "1"}, {"size": "1"}, {"size": "6"}, {"size": "64"}]}}}}}, {"name": "ConstantFolding/StatefulPartitionedCall/truediv_62_recip", "op": "Const", "attr": {"dtype": {"type": "DT_FLOAT"}, "value": {"tensor": {"dtype": "DT_FLOAT", "tensorShape": {}}}}}, {"name": "StatefulPartitionedCall/Const_1505", "op": "Const", "attr": {"value": {"tensor": {"dtype": "DT_FLOAT", "tensorShape": {}}}, "dtype": {"type": "DT_FLOAT"}}}, {"name": "StatefulPartitionedCall/Sum_51/reduction_indices", "op": "Const", "attr": {"dtype": {"type": "DT_INT32"}, "value": {"tensor": {"dtype": "DT_INT32", "tensorShape": {"dim": [{"size": "1"}]}}}}}, {"name": "ConstantFolding/StatefulPartitionedCall/truediv_61_recip", "op": "Const", "attr": {"dtype": {"type": "DT_FLOAT"}, "value": {"tensor": {"dtype": "DT_FLOAT", "tensorShape": {}}}}}, {"name": "StatefulPartitionedCall/Const_1515", "op": "Const", "attr": {"value": {"tensor": {"dtype": "DT_INT32", "tensorShape": {}}}, "dtype": {"type": "DT_INT32"}}}, {"name": "StatefulPartitionedCall/Const_1517", "op": "Const", "attr": {"dtype": {"type": "DT_INT32"}, "value": {"tensor": {"dtype": "DT_INT32", "tensorShape": {}}}}}, {"name": "StatefulPartitionedCall/Const_1519", "op": "Const", "attr": {"value": {"tensor": {"dtype": "DT_FLOAT", "tensorShape": {}}}, "dtype": {"type": "DT_FLOAT"}}}, {"name": "StatefulPartitionedCall/Reshape_163", "op": "Const", "attr": {"dtype": {"type": "DT_FLOAT"}, "value": {"tensor": {"dtype": "DT_FLOAT", "tensorShape": {"dim": [{"size": "1"}, {"size": "1"}, {"size": "384"}]}}}}}, {"name": "StatefulPartitionedCall/Reshape_160", "op": "Const", "attr": {"dtype": {"type": "DT_FLOAT"}, "value": {"tensor": {"dtype": "DT_FLOAT", "tensorShape": {"dim": [{"size": "1"}, {"size": "1"}, {"size": "384"}]}}}}}, {"name": "StatefulPartitionedCall/Const_1493", "op": "Const", "attr": {"dtype": {"type": "DT_FLOAT"}, "value": {"tensor": {"dtype": "DT_FLOAT", "tensorShape": {}}}}}, {"name": "StatefulPartitionedCall/Const_1487", "op": "Const", "attr": {"value": {"tensor": {"dtype": "DT_FLOAT", "tensorShape": {}}}, "dtype": {"type": "DT_FLOAT"}}}, {"name": "StatefulPartitionedCall/Const_1453", "op": "Const", "attr": {"dtype": {"type": "DT_FLOAT"}, "value": {"tensor": {"dtype": "DT_FLOAT", "tensorShape": {}}}}}, {"name": "StatefulPartitionedCall/Sum_49/reduction_indices", "op": "Const", "attr": {"value": {"tensor": {"dtype": "DT_INT32", "tensorShape": {"dim": [{"size": "1"}]}}}, "dtype": {"type": "DT_INT32"}}}, {"name": "ConstantFolding/StatefulPartitionedCall/truediv_59_recip", "op": "Const", "attr": {"value": {"tensor": {"dtype": "DT_FLOAT", "tensorShape": {}}}, "dtype": {"type": "DT_FLOAT"}}}, {"name": "StatefulPartitionedCall/Const_1463", "op": "Const", "attr": {"dtype": {"type": "DT_INT32"}, "value": {"tensor": {"dtype": "DT_INT32", "tensorShape": {}}}}}, {"name": "StatefulPartitionedCall/Const_1465", "op": "Const", "attr": {"value": {"tensor": {"dtype": "DT_INT32", "tensorShape": {}}}, "dtype": {"type": "DT_INT32"}}}, {"name": "StatefulPartitionedCall/Const_1467", "op": "Const", "attr": {"dtype": {"type": "DT_FLOAT"}, "value": {"tensor": {"dtype": "DT_FLOAT", "tensorShape": {}}}}}, {"name": "StatefulPartitionedCall/Reshape_157", "op": "Const", "attr": {"dtype": {"type": "DT_FLOAT"}, "value": {"tensor": {"dtype": "DT_FLOAT", "tensorShape": {"dim": [{"size": "1"}, {"size": "1"}, {"size": "384"}]}}}}}, {"name": "StatefulPartitionedCall/Reshape_154", "op": "Const", "attr": {"value": {"tensor": {"dtype": "DT_FLOAT", "tensorShape": {"dim": [{"size": "1"}, {"size": "1"}, {"size": "384"}]}}}, "dtype": {"type": "DT_FLOAT"}}}, {"name": "StatefulPartitionedCall/jax2tf_arg_195/ReadVariableOp", "op": "Const", "attr": {"dtype": {"type": "DT_FLOAT"}, "value": {"tensor": {"dtype": "DT_FLOAT", "tensorShape": {"dim": [{"size": "384"}, {"size": "6"}, {"size": "64"}]}}}}}, {"name": "StatefulPartitionedCall/Reshape_151", "op": "Const", "attr": {"value": {"tensor": {"dtype": "DT_FLOAT", "tensorShape": {"dim": [{"size": "1"}, {"size": "1"}, {"size": "6"}, {"size": "64"}]}}}, "dtype": {"type": "DT_FLOAT"}}}, {"name": "StatefulPartitionedCall/jax2tf_arg_193/ReadVariableOp", "op": "Const", "attr": {"dtype": {"type": "DT_FLOAT"}, "value": {"tensor": {"dtype": "DT_FLOAT", "tensorShape": {"dim": [{"size": "384"}, {"size": "6"}, {"size": "64"}]}}}}}, {"name": "StatefulPartitionedCall/Reshape_149", "op": "Const", "attr": {"dtype": {"type": "DT_FLOAT"}, "value": {"tensor": {"dtype": "DT_FLOAT", "tensorShape": {"dim": [{"size": "1"}, {"size": "1"}, {"size": "6"}, {"size": "64"}]}}}}}, {"name": "ConstantFolding/StatefulPartitionedCall/truediv_56_recip", "op": "Const", "attr": {"dtype": {"type": "DT_FLOAT"}, "value": {"tensor": {"dtype": "DT_FLOAT", "tensorShape": {}}}}}, {"name": "StatefulPartitionedCall/Const_1357", "op": "Const", "attr": {"value": {"tensor": {"dtype": "DT_FLOAT", "tensorShape": {}}}, "dtype": {"type": "DT_FLOAT"}}}, {"name": "StatefulPartitionedCall/Sum_46/reduction_indices", "op": "Const", "attr": {"dtype": {"type": "DT_INT32"}, "value": {"tensor": {"dtype": "DT_INT32", "tensorShape": {"dim": [{"size": "1"}]}}}}}, {"name": "ConstantFolding/StatefulPartitionedCall/truediv_55_recip", "op": "Const", "attr": {"value": {"tensor": {"dtype": "DT_FLOAT", "tensorShape": {}}}, "dtype": {"type": "DT_FLOAT"}}}, {"name": "StatefulPartitionedCall/Const_1367", "op": "Const", "attr": {"dtype": {"type": "DT_INT32"}, "value": {"tensor": {"dtype": "DT_INT32", "tensorShape": {}}}}}, {"name": "StatefulPartitionedCall/Const_1369", "op": "Const", "attr": {"dtype": {"type": "DT_INT32"}, "value": {"tensor": {"dtype": "DT_INT32", "tensorShape": {}}}}}, {"name": "StatefulPartitionedCall/Const_1371", "op": "Const", "attr": {"dtype": {"type": "DT_FLOAT"}, "value": {"tensor": {"dtype": "DT_FLOAT", "tensorShape": {}}}}}, {"name": "StatefulPartitionedCall/Reshape_147", "op": "Const", "attr": {"dtype": {"type": "DT_FLOAT"}, "value": {"tensor": {"dtype": "DT_FLOAT", "tensorShape": {"dim": [{"size": "1"}, {"size": "1"}, {"size": "384"}]}}}}}, {"name": "StatefulPartitionedCall/Reshape_144", "op": "Const", "attr": {"dtype": {"type": "DT_FLOAT"}, "value": {"tensor": {"dtype": "DT_FLOAT", "tensorShape": {"dim": [{"size": "1"}, {"size": "1"}, {"size": "384"}]}}}}}, {"name": "StatefulPartitionedCall/Const_1345", "op": "Const", "attr": {"dtype": {"type": "DT_FLOAT"}, "value": {"tensor": {"dtype": "DT_FLOAT", "tensorShape": {}}}}}, {"name": "StatefulPartitionedCall/Const_1339", "op": "Const", "attr": {"value": {"tensor": {"dtype": "DT_FLOAT", "tensorShape": {}}}, "dtype": {"type": "DT_FLOAT"}}}, {"name": "StatefulPartitionedCall/Const_1305", "op": "Const", "attr": {"value": {"tensor": {"dtype": "DT_FLOAT", "tensorShape": {}}}, "dtype": {"type": "DT_FLOAT"}}}, {"name": "StatefulPartitionedCall/Sum_44/reduction_indices", "op": "Const", "attr": {"value": {"tensor": {"dtype": "DT_INT32", "tensorShape": {"dim": [{"size": "1"}]}}}, "dtype": {"type": "DT_INT32"}}}, {"name": "ConstantFolding/StatefulPartitionedCall/truediv_53_recip", "op": "Const", "attr": {"dtype": {"type": "DT_FLOAT"}, "value": {"tensor": {"dtype": "DT_FLOAT", "tensorShape": {}}}}}, {"name": "StatefulPartitionedCall/Const_1315", "op": "Const", "attr": {"dtype": {"type": "DT_INT32"}, "value": {"tensor": {"dtype": "DT_INT32", "tensorShape": {}}}}}, {"name": "StatefulPartitionedCall/Const_1317", "op": "Const", "attr": {"dtype": {"type": "DT_INT32"}, "value": {"tensor": {"dtype": "DT_INT32", "tensorShape": {}}}}}, {"name": "StatefulPartitionedCall/Const_1319", "op": "Const", "attr": {"value": {"tensor": {"dtype": "DT_FLOAT", "tensorShape": {}}}, "dtype": {"type": "DT_FLOAT"}}}, {"name": "StatefulPartitionedCall/Reshape_141", "op": "Const", "attr": {"value": {"tensor": {"dtype": "DT_FLOAT", "tensorShape": {"dim": [{"size": "1"}, {"size": "1"}, {"size": "384"}]}}}, "dtype": {"type": "DT_FLOAT"}}}, {"name": "StatefulPartitionedCall/Reshape_138", "op": "Const", "attr": {"value": {"tensor": {"dtype": "DT_FLOAT", "tensorShape": {"dim": [{"size": "1"}, {"size": "1"}, {"size": "384"}]}}}, "dtype": {"type": "DT_FLOAT"}}}, {"name": "StatefulPartitionedCall/jax2tf_arg_179/ReadVariableOp", "op": "Const", "attr": {"dtype": {"type": "DT_FLOAT"}, "value": {"tensor": {"dtype": "DT_FLOAT", "tensorShape": {"dim": [{"size": "384"}, {"size": "6"}, {"size": "64"}]}}}}}, {"name": "StatefulPartitionedCall/Reshape_135", "op": "Const", "attr": {"value": {"tensor": {"dtype": "DT_FLOAT", "tensorShape": {"dim": [{"size": "1"}, {"size": "1"}, {"size": "6"}, {"size": "64"}]}}}, "dtype": {"type": "DT_FLOAT"}}}, {"name": "StatefulPartitionedCall/jax2tf_arg_177/ReadVariableOp", "op": "Const", "attr": {"dtype": {"type": "DT_FLOAT"}, "value": {"tensor": {"dtype": "DT_FLOAT", "tensorShape": {"dim": [{"size": "384"}, {"size": "6"}, {"size": "64"}]}}}}}, {"name": "StatefulPartitionedCall/Reshape_133", "op": "Const", "attr": {"dtype": {"type": "DT_FLOAT"}, "value": {"tensor": {"dtype": "DT_FLOAT", "tensorShape": {"dim": [{"size": "1"}, {"size": "1"}, {"size": "6"}, {"size": "64"}]}}}}}, {"name": "ConstantFolding/StatefulPartitionedCall/truediv_50_recip", "op": "Const", "attr": {"dtype": {"type": "DT_FLOAT"}, "value": {"tensor": {"dtype": "DT_FLOAT", "tensorShape": {}}}}}, {"name": "StatefulPartitionedCall/Const_1209", "op": "Const", "attr": {"value": {"tensor": {"dtype": "DT_FLOAT", "tensorShape": {}}}, "dtype": {"type": "DT_FLOAT"}}}, {"name": "StatefulPartitionedCall/Sum_41/reduction_indices", "op": "Const", "attr": {"dtype": {"type": "DT_INT32"}, "value": {"tensor": {"dtype": "DT_INT32", "tensorShape": {"dim": [{"size": "1"}]}}}}}, {"name": "ConstantFolding/StatefulPartitionedCall/truediv_49_recip", "op": "Const", "attr": {"dtype": {"type": "DT_FLOAT"}, "value": {"tensor": {"dtype": "DT_FLOAT", "tensorShape": {}}}}}, {"name": "StatefulPartitionedCall/Const_1219", "op": "Const", "attr": {"dtype": {"type": "DT_INT32"}, "value": {"tensor": {"dtype": "DT_INT32", "tensorShape": {}}}}}, {"name": "StatefulPartitionedCall/Const_1221", "op": "Const", "attr": {"dtype": {"type": "DT_INT32"}, "value": {"tensor": {"dtype": "DT_INT32", "tensorShape": {}}}}}, {"name": "StatefulPartitionedCall/Const_1223", "op": "Const", "attr": {"value": {"tensor": {"dtype": "DT_FLOAT", "tensorShape": {}}}, "dtype": {"type": "DT_FLOAT"}}}, {"name": "StatefulPartitionedCall/Reshape_131", "op": "Const", "attr": {"dtype": {"type": "DT_FLOAT"}, "value": {"tensor": {"dtype": "DT_FLOAT", "tensorShape": {"dim": [{"size": "1"}, {"size": "1"}, {"size": "384"}]}}}}}, {"name": "StatefulPartitionedCall/Reshape_128", "op": "Const", "attr": {"value": {"tensor": {"dtype": "DT_FLOAT", "tensorShape": {"dim": [{"size": "1"}, {"size": "1"}, {"size": "384"}]}}}, "dtype": {"type": "DT_FLOAT"}}}, {"name": "StatefulPartitionedCall/Const_1197", "op": "Const", "attr": {"dtype": {"type": "DT_FLOAT"}, "value": {"tensor": {"dtype": "DT_FLOAT", "tensorShape": {}}}}}, {"name": "StatefulPartitionedCall/Const_1191", "op": "Const", "attr": {"value": {"tensor": {"dtype": "DT_FLOAT", "tensorShape": {}}}, "dtype": {"type": "DT_FLOAT"}}}, {"name": "StatefulPartitionedCall/Const_1157", "op": "Const", "attr": {"value": {"tensor": {"dtype": "DT_FLOAT", "tensorShape": {}}}, "dtype": {"type": "DT_FLOAT"}}}, {"name": "StatefulPartitionedCall/Sum_39/reduction_indices", "op": "Const", "attr": {"dtype": {"type": "DT_INT32"}, "value": {"tensor": {"dtype": "DT_INT32", "tensorShape": {"dim": [{"size": "1"}]}}}}}, {"name": "ConstantFolding/StatefulPartitionedCall/truediv_47_recip", "op": "Const", "attr": {"value": {"tensor": {"dtype": "DT_FLOAT", "tensorShape": {}}}, "dtype": {"type": "DT_FLOAT"}}}, {"name": "StatefulPartitionedCall/Const_1167", "op": "Const", "attr": {"dtype": {"type": "DT_INT32"}, "value": {"tensor": {"dtype": "DT_INT32", "tensorShape": {}}}}}, {"name": "StatefulPartitionedCall/Const_1169", "op": "Const", "attr": {"dtype": {"type": "DT_INT32"}, "value": {"tensor": {"dtype": "DT_INT32", "tensorShape": {}}}}}, {"name": "StatefulPartitionedCall/Const_1171", "op": "Const", "attr": {"dtype": {"type": "DT_FLOAT"}, "value": {"tensor": {"dtype": "DT_FLOAT", "tensorShape": {}}}}}, {"name": "StatefulPartitionedCall/Reshape_125", "op": "Const", "attr": {"value": {"tensor": {"dtype": "DT_FLOAT", "tensorShape": {"dim": [{"size": "1"}, {"size": "1"}, {"size": "384"}]}}}, "dtype": {"type": "DT_FLOAT"}}}, {"name": "StatefulPartitionedCall/Reshape_122", "op": "Const", "attr": {"value": {"tensor": {"dtype": "DT_FLOAT", "tensorShape": {"dim": [{"size": "1"}, {"size": "1"}, {"size": "384"}]}}}, "dtype": {"type": "DT_FLOAT"}}}, {"name": "StatefulPartitionedCall/jax2tf_arg_163/ReadVariableOp", "op": "Const", "attr": {"dtype": {"type": "DT_FLOAT"}, "value": {"tensor": {"dtype": "DT_FLOAT", "tensorShape": {"dim": [{"size": "384"}, {"size": "6"}, {"size": "64"}]}}}}}, {"name": "StatefulPartitionedCall/Reshape_119", "op": "Const", "attr": {"dtype": {"type": "DT_FLOAT"}, "value": {"tensor": {"dtype": "DT_FLOAT", "tensorShape": {"dim": [{"size": "1"}, {"size": "1"}, {"size": "6"}, {"size": "64"}]}}}}}, {"name": "StatefulPartitionedCall/jax2tf_arg_161/ReadVariableOp", "op": "Const", "attr": {"value": {"tensor": {"dtype": "DT_FLOAT", "tensorShape": {"dim": [{"size": "384"}, {"size": "6"}, {"size": "64"}]}}}, "dtype": {"type": "DT_FLOAT"}}}, {"name": "StatefulPartitionedCall/Reshape_117", "op": "Const", "attr": {"value": {"tensor": {"dtype": "DT_FLOAT", "tensorShape": {"dim": [{"size": "1"}, {"size": "1"}, {"size": "6"}, {"size": "64"}]}}}, "dtype": {"type": "DT_FLOAT"}}}, {"name": "ConstantFolding/StatefulPartitionedCall/truediv_44_recip", "op": "Const", "attr": {"dtype": {"type": "DT_FLOAT"}, "value": {"tensor": {"dtype": "DT_FLOAT", "tensorShape": {}}}}}, {"name": "StatefulPartitionedCall/Const_1061", "op": "Const", "attr": {"dtype": {"type": "DT_FLOAT"}, "value": {"tensor": {"dtype": "DT_FLOAT", "tensorShape": {}}}}}, {"name": "StatefulPartitionedCall/Sum_36/reduction_indices", "op": "Const", "attr": {"value": {"tensor": {"dtype": "DT_INT32", "tensorShape": {"dim": [{"size": "1"}]}}}, "dtype": {"type": "DT_INT32"}}}, {"name": "ConstantFolding/StatefulPartitionedCall/truediv_43_recip", "op": "Const", "attr": {"dtype": {"type": "DT_FLOAT"}, "value": {"tensor": {"dtype": "DT_FLOAT", "tensorShape": {}}}}}, {"name": "StatefulPartitionedCall/Const_1071", "op": "Const", "attr": {"value": {"tensor": {"dtype": "DT_INT32", "tensorShape": {}}}, "dtype": {"type": "DT_INT32"}}}, {"name": "StatefulPartitionedCall/Const_1073", "op": "Const", "attr": {"value": {"tensor": {"dtype": "DT_INT32", "tensorShape": {}}}, "dtype": {"type": "DT_INT32"}}}, {"name": "StatefulPartitionedCall/Const_1075", "op": "Const", "attr": {"value": {"tensor": {"dtype": "DT_FLOAT", "tensorShape": {}}}, "dtype": {"type": "DT_FLOAT"}}}, {"name": "StatefulPartitionedCall/Reshape_115", "op": "Const", "attr": {"dtype": {"type": "DT_FLOAT"}, "value": {"tensor": {"dtype": "DT_FLOAT", "tensorShape": {"dim": [{"size": "1"}, {"size": "1"}, {"size": "384"}]}}}}}, {"name": "StatefulPartitionedCall/Reshape_112", "op": "Const", "attr": {"value": {"tensor": {"dtype": "DT_FLOAT", "tensorShape": {"dim": [{"size": "1"}, {"size": "1"}, {"size": "384"}]}}}, "dtype": {"type": "DT_FLOAT"}}}, {"name": "StatefulPartitionedCall/Const_1049", "op": "Const", "attr": {"value": {"tensor": {"dtype": "DT_FLOAT", "tensorShape": {}}}, "dtype": {"type": "DT_FLOAT"}}}, {"name": "StatefulPartitionedCall/Const_1043", "op": "Const", "attr": {"value": {"tensor": {"dtype": "DT_FLOAT", "tensorShape": {}}}, "dtype": {"type": "DT_FLOAT"}}}, {"name": "StatefulPartitionedCall/Const_1009", "op": "Const", "attr": {"dtype": {"type": "DT_FLOAT"}, "value": {"tensor": {"dtype": "DT_FLOAT", "tensorShape": {}}}}}, {"name": "StatefulPartitionedCall/Sum_34/reduction_indices", "op": "Const", "attr": {"dtype": {"type": "DT_INT32"}, "value": {"tensor": {"dtype": "DT_INT32", "tensorShape": {"dim": [{"size": "1"}]}}}}}, {"name": "ConstantFolding/StatefulPartitionedCall/truediv_41_recip", "op": "Const", "attr": {"value": {"tensor": {"dtype": "DT_FLOAT", "tensorShape": {}}}, "dtype": {"type": "DT_FLOAT"}}}, {"name": "StatefulPartitionedCall/Const_1019", "op": "Const", "attr": {"dtype": {"type": "DT_INT32"}, "value": {"tensor": {"dtype": "DT_INT32", "tensorShape": {}}}}}, {"name": "StatefulPartitionedCall/Const_1021", "op": "Const", "attr": {"value": {"tensor": {"dtype": "DT_INT32", "tensorShape": {}}}, "dtype": {"type": "DT_INT32"}}}, {"name": "StatefulPartitionedCall/Const_1023", "op": "Const", "attr": {"value": {"tensor": {"dtype": "DT_FLOAT", "tensorShape": {}}}, "dtype": {"type": "DT_FLOAT"}}}, {"name": "StatefulPartitionedCall/Reshape_109", "op": "Const", "attr": {"dtype": {"type": "DT_FLOAT"}, "value": {"tensor": {"dtype": "DT_FLOAT", "tensorShape": {"dim": [{"size": "1"}, {"size": "1"}, {"size": "384"}]}}}}}, {"name": "StatefulPartitionedCall/Reshape_106", "op": "Const", "attr": {"dtype": {"type": "DT_FLOAT"}, "value": {"tensor": {"dtype": "DT_FLOAT", "tensorShape": {"dim": [{"size": "1"}, {"size": "1"}, {"size": "384"}]}}}}}, {"name": "StatefulPartitionedCall/jax2tf_arg_147/ReadVariableOp", "op": "Const", "attr": {"value": {"tensor": {"dtype": "DT_FLOAT", "tensorShape": {"dim": [{"size": "384"}, {"size": "6"}, {"size": "64"}]}}}, "dtype": {"type": "DT_FLOAT"}}}, {"name": "StatefulPartitionedCall/Reshape_103", "op": "Const", "attr": {"value": {"tensor": {"dtype": "DT_FLOAT", "tensorShape": {"dim": [{"size": "1"}, {"size": "1"}, {"size": "6"}, {"size": "64"}]}}}, "dtype": {"type": "DT_FLOAT"}}}, {"name": "StatefulPartitionedCall/jax2tf_arg_145/ReadVariableOp", "op": "Const", "attr": {"value": {"tensor": {"dtype": "DT_FLOAT", "tensorShape": {"dim": [{"size": "384"}, {"size": "6"}, {"size": "64"}]}}}, "dtype": {"type": "DT_FLOAT"}}}, {"name": "StatefulPartitionedCall/Reshape_101", "op": "Const", "attr": {"dtype": {"type": "DT_FLOAT"}, "value": {"tensor": {"dtype": "DT_FLOAT", "tensorShape": {"dim": [{"size": "1"}, {"size": "1"}, {"size": "6"}, {"size": "64"}]}}}}}, {"name": "ConstantFolding/StatefulPartitionedCall/truediv_38_recip", "op": "Const", "attr": {"dtype": {"type": "DT_FLOAT"}, "value": {"tensor": {"dtype": "DT_FLOAT", "tensorShape": {}}}}}, {"name": "StatefulPartitionedCall/Const_913", "op": "Const", "attr": {"dtype": {"type": "DT_FLOAT"}, "value": {"tensor": {"dtype": "DT_FLOAT", "tensorShape": {}}}}}, {"name": "StatefulPartitionedCall/Sum_31/reduction_indices", "op": "Const", "attr": {"dtype": {"type": "DT_INT32"}, "value": {"tensor": {"dtype": "DT_INT32", "tensorShape": {"dim": [{"size": "1"}]}}}}}, {"name": "ConstantFolding/StatefulPartitionedCall/truediv_37_recip", "op": "Const", "attr": {"value": {"tensor": {"dtype": "DT_FLOAT", "tensorShape": {}}}, "dtype": {"type": "DT_FLOAT"}}}, {"name": "StatefulPartitionedCall/Const_923", "op": "Const", "attr": {"dtype": {"type": "DT_INT32"}, "value": {"tensor": {"dtype": "DT_INT32", "tensorShape": {}}}}}, {"name": "StatefulPartitionedCall/Const_925", "op": "Const", "attr": {"value": {"tensor": {"dtype": "DT_INT32", "tensorShape": {}}}, "dtype": {"type": "DT_INT32"}}}, {"name": "StatefulPartitionedCall/Const_927", "op": "Const", "attr": {"value": {"tensor": {"dtype": "DT_FLOAT", "tensorShape": {}}}, "dtype": {"type": "DT_FLOAT"}}}, {"name": "StatefulPartitionedCall/Reshape_99", "op": "Const", "attr": {"dtype": {"type": "DT_FLOAT"}, "value": {"tensor": {"dtype": "DT_FLOAT", "tensorShape": {"dim": [{"size": "1"}, {"size": "1"}, {"size": "384"}]}}}}}, {"name": "StatefulPartitionedCall/Reshape_96", "op": "Const", "attr": {"value": {"tensor": {"dtype": "DT_FLOAT", "tensorShape": {"dim": [{"size": "1"}, {"size": "1"}, {"size": "384"}]}}}, "dtype": {"type": "DT_FLOAT"}}}, {"name": "StatefulPartitionedCall/Const_901", "op": "Const", "attr": {"value": {"tensor": {"dtype": "DT_FLOAT", "tensorShape": {}}}, "dtype": {"type": "DT_FLOAT"}}}, {"name": "StatefulPartitionedCall/Const_895", "op": "Const", "attr": {"value": {"tensor": {"dtype": "DT_FLOAT", "tensorShape": {}}}, "dtype": {"type": "DT_FLOAT"}}}, {"name": "StatefulPartitionedCall/Const_861", "op": "Const", "attr": {"value": {"tensor": {"dtype": "DT_FLOAT", "tensorShape": {}}}, "dtype": {"type": "DT_FLOAT"}}}, {"name": "StatefulPartitionedCall/Sum_29/reduction_indices", "op": "Const", "attr": {"dtype": {"type": "DT_INT32"}, "value": {"tensor": {"dtype": "DT_INT32", "tensorShape": {"dim": [{"size": "1"}]}}}}}, {"name": "ConstantFolding/StatefulPartitionedCall/truediv_35_recip", "op": "Const", "attr": {"dtype": {"type": "DT_FLOAT"}, "value": {"tensor": {"dtype": "DT_FLOAT", "tensorShape": {}}}}}, {"name": "StatefulPartitionedCall/Const_871", "op": "Const", "attr": {"dtype": {"type": "DT_INT32"}, "value": {"tensor": {"dtype": "DT_INT32", "tensorShape": {}}}}}, {"name": "StatefulPartitionedCall/Const_873", "op": "Const", "attr": {"dtype": {"type": "DT_INT32"}, "value": {"tensor": {"dtype": "DT_INT32", "tensorShape": {}}}}}, {"name": "StatefulPartitionedCall/Const_875", "op": "Const", "attr": {"value": {"tensor": {"dtype": "DT_FLOAT", "tensorShape": {}}}, "dtype": {"type": "DT_FLOAT"}}}, {"name": "StatefulPartitionedCall/Reshape_93", "op": "Const", "attr": {"value": {"tensor": {"dtype": "DT_FLOAT", "tensorShape": {"dim": [{"size": "1"}, {"size": "1"}, {"size": "384"}]}}}, "dtype": {"type": "DT_FLOAT"}}}, {"name": "StatefulPartitionedCall/Reshape_90", "op": "Const", "attr": {"value": {"tensor": {"dtype": "DT_FLOAT", "tensorShape": {"dim": [{"size": "1"}, {"size": "1"}, {"size": "384"}]}}}, "dtype": {"type": "DT_FLOAT"}}}, {"name": "StatefulPartitionedCall/jax2tf_arg_131/ReadVariableOp", "op": "Const", "attr": {"value": {"tensor": {"dtype": "DT_FLOAT", "tensorShape": {"dim": [{"size": "384"}, {"size": "6"}, {"size": "64"}]}}}, "dtype": {"type": "DT_FLOAT"}}}, {"name": "StatefulPartitionedCall/Reshape_87", "op": "Const", "attr": {"value": {"tensor": {"dtype": "DT_FLOAT", "tensorShape": {"dim": [{"size": "1"}, {"size": "1"}, {"size": "6"}, {"size": "64"}]}}}, "dtype": {"type": "DT_FLOAT"}}}, {"name": "StatefulPartitionedCall/jax2tf_arg_129/ReadVariableOp", "op": "Const", "attr": {"dtype": {"type": "DT_FLOAT"}, "value": {"tensor": {"dtype": "DT_FLOAT", "tensorShape": {"dim": [{"size": "384"}, {"size": "6"}, {"size": "64"}]}}}}}, {"name": "StatefulPartitionedCall/Reshape_85", "op": "Const", "attr": {"dtype": {"type": "DT_FLOAT"}, "value": {"tensor": {"dtype": "DT_FLOAT", "tensorShape": {"dim": [{"size": "1"}, {"size": "1"}, {"size": "6"}, {"size": "64"}]}}}}}, {"name": "ConstantFolding/StatefulPartitionedCall/truediv_32_recip", "op": "Const", "attr": {"dtype": {"type": "DT_FLOAT"}, "value": {"tensor": {"dtype": "DT_FLOAT", "tensorShape": {}}}}}, {"name": "StatefulPartitionedCall/Const_765", "op": "Const", "attr": {"value": {"tensor": {"dtype": "DT_FLOAT", "tensorShape": {}}}, "dtype": {"type": "DT_FLOAT"}}}, {"name": "StatefulPartitionedCall/Sum_26/reduction_indices", "op": "Const", "attr": {"dtype": {"type": "DT_INT32"}, "value": {"tensor": {"dtype": "DT_INT32", "tensorShape": {"dim": [{"size": "1"}]}}}}}, {"name": "ConstantFolding/StatefulPartitionedCall/truediv_31_recip", "op": "Const", "attr": {"value": {"tensor": {"dtype": "DT_FLOAT", "tensorShape": {}}}, "dtype": {"type": "DT_FLOAT"}}}, {"name": "StatefulPartitionedCall/Const_775", "op": "Const", "attr": {"value": {"tensor": {"dtype": "DT_INT32", "tensorShape": {}}}, "dtype": {"type": "DT_INT32"}}}, {"name": "StatefulPartitionedCall/Const_777", "op": "Const", "attr": {"value": {"tensor": {"dtype": "DT_INT32", "tensorShape": {}}}, "dtype": {"type": "DT_INT32"}}}, {"name": "StatefulPartitionedCall/Const_779", "op": "Const", "attr": {"value": {"tensor": {"dtype": "DT_FLOAT", "tensorShape": {}}}, "dtype": {"type": "DT_FLOAT"}}}, {"name": "StatefulPartitionedCall/Reshape_83", "op": "Const", "attr": {"value": {"tensor": {"dtype": "DT_FLOAT", "tensorShape": {"dim": [{"size": "1"}, {"size": "1"}, {"size": "384"}]}}}, "dtype": {"type": "DT_FLOAT"}}}, {"name": "StatefulPartitionedCall/Reshape_80", "op": "Const", "attr": {"value": {"tensor": {"dtype": "DT_FLOAT", "tensorShape": {"dim": [{"size": "1"}, {"size": "1"}, {"size": "384"}]}}}, "dtype": {"type": "DT_FLOAT"}}}, {"name": "StatefulPartitionedCall/Const_753", "op": "Const", "attr": {"dtype": {"type": "DT_FLOAT"}, "value": {"tensor": {"dtype": "DT_FLOAT", "tensorShape": {}}}}}, {"name": "StatefulPartitionedCall/Const_747", "op": "Const", "attr": {"dtype": {"type": "DT_FLOAT"}, "value": {"tensor": {"dtype": "DT_FLOAT", "tensorShape": {}}}}}, {"name": "StatefulPartitionedCall/Const_713", "op": "Const", "attr": {"dtype": {"type": "DT_FLOAT"}, "value": {"tensor": {"dtype": "DT_FLOAT", "tensorShape": {}}}}}, {"name": "StatefulPartitionedCall/Sum_24/reduction_indices", "op": "Const", "attr": {"dtype": {"type": "DT_INT32"}, "value": {"tensor": {"dtype": "DT_INT32", "tensorShape": {"dim": [{"size": "1"}]}}}}}, {"name": "ConstantFolding/StatefulPartitionedCall/truediv_29_recip", "op": "Const", "attr": {"value": {"tensor": {"dtype": "DT_FLOAT", "tensorShape": {}}}, "dtype": {"type": "DT_FLOAT"}}}, {"name": "StatefulPartitionedCall/Const_723", "op": "Const", "attr": {"dtype": {"type": "DT_INT32"}, "value": {"tensor": {"dtype": "DT_INT32", "tensorShape": {}}}}}, {"name": "StatefulPartitionedCall/Const_725", "op": "Const", "attr": {"dtype": {"type": "DT_INT32"}, "value": {"tensor": {"dtype": "DT_INT32", "tensorShape": {}}}}}, {"name": "StatefulPartitionedCall/Const_727", "op": "Const", "attr": {"dtype": {"type": "DT_FLOAT"}, "value": {"tensor": {"dtype": "DT_FLOAT", "tensorShape": {}}}}}, {"name": "StatefulPartitionedCall/Reshape_77", "op": "Const", "attr": {"dtype": {"type": "DT_FLOAT"}, "value": {"tensor": {"dtype": "DT_FLOAT", "tensorShape": {"dim": [{"size": "1"}, {"size": "1"}, {"size": "384"}]}}}}}, {"name": "StatefulPartitionedCall/Reshape_74", "op": "Const", "attr": {"value": {"tensor": {"dtype": "DT_FLOAT", "tensorShape": {"dim": [{"size": "1"}, {"size": "1"}, {"size": "384"}]}}}, "dtype": {"type": "DT_FLOAT"}}}, {"name": "StatefulPartitionedCall/jax2tf_arg_115/ReadVariableOp", "op": "Const", "attr": {"dtype": {"type": "DT_FLOAT"}, "value": {"tensor": {"dtype": "DT_FLOAT", "tensorShape": {"dim": [{"size": "384"}, {"size": "6"}, {"size": "64"}]}}}}}, {"name": "StatefulPartitionedCall/Reshape_71", "op": "Const", "attr": {"dtype": {"type": "DT_FLOAT"}, "value": {"tensor": {"dtype": "DT_FLOAT", "tensorShape": {"dim": [{"size": "1"}, {"size": "1"}, {"size": "6"}, {"size": "64"}]}}}}}, {"name": "StatefulPartitionedCall/jax2tf_arg_113/ReadVariableOp", "op": "Const", "attr": {"dtype": {"type": "DT_FLOAT"}, "value": {"tensor": {"dtype": "DT_FLOAT", "tensorShape": {"dim": [{"size": "384"}, {"size": "6"}, {"size": "64"}]}}}}}, {"name": "StatefulPartitionedCall/Reshape_69", "op": "Const", "attr": {"dtype": {"type": "DT_FLOAT"}, "value": {"tensor": {"dtype": "DT_FLOAT", "tensorShape": {"dim": [{"size": "1"}, {"size": "1"}, {"size": "6"}, {"size": "64"}]}}}}}, {"name": "ConstantFolding/StatefulPartitionedCall/truediv_26_recip", "op": "Const", "attr": {"value": {"tensor": {"dtype": "DT_FLOAT", "tensorShape": {}}}, "dtype": {"type": "DT_FLOAT"}}}, {"name": "StatefulPartitionedCall/Const_617", "op": "Const", "attr": {"dtype": {"type": "DT_FLOAT"}, "value": {"tensor": {"dtype": "DT_FLOAT", "tensorShape": {}}}}}, {"name": "StatefulPartitionedCall/Sum_21/reduction_indices", "op": "Const", "attr": {"value": {"tensor": {"dtype": "DT_INT32", "tensorShape": {"dim": [{"size": "1"}]}}}, "dtype": {"type": "DT_INT32"}}}, {"name": "ConstantFolding/StatefulPartitionedCall/truediv_25_recip", "op": "Const", "attr": {"value": {"tensor": {"dtype": "DT_FLOAT", "tensorShape": {}}}, "dtype": {"type": "DT_FLOAT"}}}, {"name": "StatefulPartitionedCall/Const_627", "op": "Const", "attr": {"value": {"tensor": {"dtype": "DT_INT32", "tensorShape": {}}}, "dtype": {"type": "DT_INT32"}}}, {"name": "StatefulPartitionedCall/Const_629", "op": "Const", "attr": {"value": {"tensor": {"dtype": "DT_INT32", "tensorShape": {}}}, "dtype": {"type": "DT_INT32"}}}, {"name": "StatefulPartitionedCall/Const_631", "op": "Const", "attr": {"dtype": {"type": "DT_FLOAT"}, "value": {"tensor": {"dtype": "DT_FLOAT", "tensorShape": {}}}}}, {"name": "StatefulPartitionedCall/Reshape_67", "op": "Const", "attr": {"dtype": {"type": "DT_FLOAT"}, "value": {"tensor": {"dtype": "DT_FLOAT", "tensorShape": {"dim": [{"size": "1"}, {"size": "1"}, {"size": "384"}]}}}}}, {"name": "StatefulPartitionedCall/Reshape_64", "op": "Const", "attr": {"dtype": {"type": "DT_FLOAT"}, "value": {"tensor": {"dtype": "DT_FLOAT", "tensorShape": {"dim": [{"size": "1"}, {"size": "1"}, {"size": "384"}]}}}}}, {"name": "StatefulPartitionedCall/Const_605", "op": "Const", "attr": {"dtype": {"type": "DT_FLOAT"}, "value": {"tensor": {"dtype": "DT_FLOAT", "tensorShape": {}}}}}, {"name": "StatefulPartitionedCall/Const_599", "op": "Const", "attr": {"value": {"tensor": {"dtype": "DT_FLOAT", "tensorShape": {}}}, "dtype": {"type": "DT_FLOAT"}}}, {"name": "StatefulPartitionedCall/Const_565", "op": "Const", "attr": {"value": {"tensor": {"dtype": "DT_FLOAT", "tensorShape": {}}}, "dtype": {"type": "DT_FLOAT"}}}, {"name": "StatefulPartitionedCall/Sum_19/reduction_indices", "op": "Const", "attr": {"dtype": {"type": "DT_INT32"}, "value": {"tensor": {"dtype": "DT_INT32", "tensorShape": {"dim": [{"size": "1"}]}}}}}, {"name": "ConstantFolding/StatefulPartitionedCall/truediv_23_recip", "op": "Const", "attr": {"value": {"tensor": {"dtype": "DT_FLOAT", "tensorShape": {}}}, "dtype": {"type": "DT_FLOAT"}}}, {"name": "StatefulPartitionedCall/Const_575", "op": "Const", "attr": {"dtype": {"type": "DT_INT32"}, "value": {"tensor": {"dtype": "DT_INT32", "tensorShape": {}}}}}, {"name": "StatefulPartitionedCall/Const_577", "op": "Const", "attr": {"value": {"tensor": {"dtype": "DT_INT32", "tensorShape": {}}}, "dtype": {"type": "DT_INT32"}}}, {"name": "StatefulPartitionedCall/Const_579", "op": "Const", "attr": {"value": {"tensor": {"dtype": "DT_FLOAT", "tensorShape": {}}}, "dtype": {"type": "DT_FLOAT"}}}, {"name": "StatefulPartitionedCall/Reshape_61", "op": "Const", "attr": {"value": {"tensor": {"dtype": "DT_FLOAT", "tensorShape": {"dim": [{"size": "1"}, {"size": "1"}, {"size": "384"}]}}}, "dtype": {"type": "DT_FLOAT"}}}, {"name": "StatefulPartitionedCall/Reshape_58", "op": "Const", "attr": {"value": {"tensor": {"dtype": "DT_FLOAT", "tensorShape": {"dim": [{"size": "1"}, {"size": "1"}, {"size": "384"}]}}}, "dtype": {"type": "DT_FLOAT"}}}, {"name": "StatefulPartitionedCall/jax2tf_arg_99/ReadVariableOp", "op": "Const", "attr": {"value": {"tensor": {"dtype": "DT_FLOAT", "tensorShape": {"dim": [{"size": "384"}, {"size": "6"}, {"size": "64"}]}}}, "dtype": {"type": "DT_FLOAT"}}}, {"name": "StatefulPartitionedCall/Reshape_55", "op": "Const", "attr": {"dtype": {"type": "DT_FLOAT"}, "value": {"tensor": {"dtype": "DT_FLOAT", "tensorShape": {"dim": [{"size": "1"}, {"size": "1"}, {"size": "6"}, {"size": "64"}]}}}}}, {"name": "StatefulPartitionedCall/jax2tf_arg_97/ReadVariableOp", "op": "Const", "attr": {"value": {"tensor": {"dtype": "DT_FLOAT", "tensorShape": {"dim": [{"size": "384"}, {"size": "6"}, {"size": "64"}]}}}, "dtype": {"type": "DT_FLOAT"}}}, {"name": "StatefulPartitionedCall/Reshape_53", "op": "Const", "attr": {"dtype": {"type": "DT_FLOAT"}, "value": {"tensor": {"dtype": "DT_FLOAT", "tensorShape": {"dim": [{"size": "1"}, {"size": "1"}, {"size": "6"}, {"size": "64"}]}}}}}, {"name": "ConstantFolding/StatefulPartitionedCall/truediv_20_recip", "op": "Const", "attr": {"dtype": {"type": "DT_FLOAT"}, "value": {"tensor": {"dtype": "DT_FLOAT", "tensorShape": {}}}}}, {"name": "StatefulPartitionedCall/Const_469", "op": "Const", "attr": {"dtype": {"type": "DT_FLOAT"}, "value": {"tensor": {"dtype": "DT_FLOAT", "tensorShape": {}}}}}, {"name": "StatefulPartitionedCall/Sum_16/reduction_indices", "op": "Const", "attr": {"dtype": {"type": "DT_INT32"}, "value": {"tensor": {"dtype": "DT_INT32", "tensorShape": {"dim": [{"size": "1"}]}}}}}, {"name": "ConstantFolding/StatefulPartitionedCall/truediv_19_recip", "op": "Const", "attr": {"value": {"tensor": {"dtype": "DT_FLOAT", "tensorShape": {}}}, "dtype": {"type": "DT_FLOAT"}}}, {"name": "StatefulPartitionedCall/Const_479", "op": "Const", "attr": {"dtype": {"type": "DT_INT32"}, "value": {"tensor": {"dtype": "DT_INT32", "tensorShape": {}}}}}, {"name": "StatefulPartitionedCall/Const_481", "op": "Const", "attr": {"value": {"tensor": {"dtype": "DT_INT32", "tensorShape": {}}}, "dtype": {"type": "DT_INT32"}}}, {"name": "StatefulPartitionedCall/Const_483", "op": "Const", "attr": {"value": {"tensor": {"dtype": "DT_FLOAT", "tensorShape": {}}}, "dtype": {"type": "DT_FLOAT"}}}, {"name": "StatefulPartitionedCall/Reshape_51", "op": "Const", "attr": {"value": {"tensor": {"dtype": "DT_FLOAT", "tensorShape": {"dim": [{"size": "1"}, {"size": "1"}, {"size": "384"}]}}}, "dtype": {"type": "DT_FLOAT"}}}, {"name": "StatefulPartitionedCall/Reshape_48", "op": "Const", "attr": {"value": {"tensor": {"dtype": "DT_FLOAT", "tensorShape": {"dim": [{"size": "1"}, {"size": "1"}, {"size": "384"}]}}}, "dtype": {"type": "DT_FLOAT"}}}, {"name": "StatefulPartitionedCall/Const_457", "op": "Const", "attr": {"value": {"tensor": {"dtype": "DT_FLOAT", "tensorShape": {}}}, "dtype": {"type": "DT_FLOAT"}}}, {"name": "StatefulPartitionedCall/Const_451", "op": "Const", "attr": {"dtype": {"type": "DT_FLOAT"}, "value": {"tensor": {"dtype": "DT_FLOAT", "tensorShape": {}}}}}, {"name": "StatefulPartitionedCall/Const_417", "op": "Const", "attr": {"dtype": {"type": "DT_FLOAT"}, "value": {"tensor": {"dtype": "DT_FLOAT", "tensorShape": {}}}}}, {"name": "StatefulPartitionedCall/Sum_14/reduction_indices", "op": "Const", "attr": {"value": {"tensor": {"dtype": "DT_INT32", "tensorShape": {"dim": [{"size": "1"}]}}}, "dtype": {"type": "DT_INT32"}}}, {"name": "ConstantFolding/StatefulPartitionedCall/truediv_17_recip", "op": "Const", "attr": {"dtype": {"type": "DT_FLOAT"}, "value": {"tensor": {"dtype": "DT_FLOAT", "tensorShape": {}}}}}, {"name": "StatefulPartitionedCall/Const_427", "op": "Const", "attr": {"dtype": {"type": "DT_INT32"}, "value": {"tensor": {"dtype": "DT_INT32", "tensorShape": {}}}}}, {"name": "StatefulPartitionedCall/Const_429", "op": "Const", "attr": {"value": {"tensor": {"dtype": "DT_INT32", "tensorShape": {}}}, "dtype": {"type": "DT_INT32"}}}, {"name": "StatefulPartitionedCall/Const_431", "op": "Const", "attr": {"dtype": {"type": "DT_FLOAT"}, "value": {"tensor": {"dtype": "DT_FLOAT", "tensorShape": {}}}}}, {"name": "StatefulPartitionedCall/Reshape_45", "op": "Const", "attr": {"dtype": {"type": "DT_FLOAT"}, "value": {"tensor": {"dtype": "DT_FLOAT", "tensorShape": {"dim": [{"size": "1"}, {"size": "1"}, {"size": "384"}]}}}}}, {"name": "StatefulPartitionedCall/Reshape_42", "op": "Const", "attr": {"value": {"tensor": {"dtype": "DT_FLOAT", "tensorShape": {"dim": [{"size": "1"}, {"size": "1"}, {"size": "384"}]}}}, "dtype": {"type": "DT_FLOAT"}}}, {"name": "StatefulPartitionedCall/jax2tf_arg_83/ReadVariableOp", "op": "Const", "attr": {"dtype": {"type": "DT_FLOAT"}, "value": {"tensor": {"dtype": "DT_FLOAT", "tensorShape": {"dim": [{"size": "384"}, {"size": "6"}, {"size": "64"}]}}}}}, {"name": "StatefulPartitionedCall/Reshape_39", "op": "Const", "attr": {"dtype": {"type": "DT_FLOAT"}, "value": {"tensor": {"dtype": "DT_FLOAT", "tensorShape": {"dim": [{"size": "1"}, {"size": "1"}, {"size": "6"}, {"size": "64"}]}}}}}, {"name": "StatefulPartitionedCall/jax2tf_arg_81/ReadVariableOp", "op": "Const", "attr": {"dtype": {"type": "DT_FLOAT"}, "value": {"tensor": {"dtype": "DT_FLOAT", "tensorShape": {"dim": [{"size": "384"}, {"size": "6"}, {"size": "64"}]}}}}}, {"name": "StatefulPartitionedCall/Reshape_37", "op": "Const", "attr": {"dtype": {"type": "DT_FLOAT"}, "value": {"tensor": {"dtype": "DT_FLOAT", "tensorShape": {"dim": [{"size": "1"}, {"size": "1"}, {"size": "6"}, {"size": "64"}]}}}}}, {"name": "ConstantFolding/StatefulPartitionedCall/truediv_14_recip", "op": "Const", "attr": {"dtype": {"type": "DT_FLOAT"}, "value": {"tensor": {"dtype": "DT_FLOAT", "tensorShape": {}}}}}, {"name": "StatefulPartitionedCall/Const_321", "op": "Const", "attr": {"value": {"tensor": {"dtype": "DT_FLOAT", "tensorShape": {}}}, "dtype": {"type": "DT_FLOAT"}}}, {"name": "StatefulPartitionedCall/Sum_11/reduction_indices", "op": "Const", "attr": {"dtype": {"type": "DT_INT32"}, "value": {"tensor": {"dtype": "DT_INT32", "tensorShape": {"dim": [{"size": "1"}]}}}}}, {"name": "ConstantFolding/StatefulPartitionedCall/truediv_13_recip", "op": "Const", "attr": {"value": {"tensor": {"dtype": "DT_FLOAT", "tensorShape": {}}}, "dtype": {"type": "DT_FLOAT"}}}, {"name": "StatefulPartitionedCall/Const_331", "op": "Const", "attr": {"dtype": {"type": "DT_INT32"}, "value": {"tensor": {"dtype": "DT_INT32", "tensorShape": {}}}}}, {"name": "StatefulPartitionedCall/Const_333", "op": "Const", "attr": {"value": {"tensor": {"dtype": "DT_INT32", "tensorShape": {}}}, "dtype": {"type": "DT_INT32"}}}, {"name": "StatefulPartitionedCall/Const_335", "op": "Const", "attr": {"value": {"tensor": {"dtype": "DT_FLOAT", "tensorShape": {}}}, "dtype": {"type": "DT_FLOAT"}}}, {"name": "StatefulPartitionedCall/Reshape_35", "op": "Const", "attr": {"value": {"tensor": {"dtype": "DT_FLOAT", "tensorShape": {"dim": [{"size": "1"}, {"size": "1"}, {"size": "384"}]}}}, "dtype": {"type": "DT_FLOAT"}}}, {"name": "StatefulPartitionedCall/Reshape_32", "op": "Const", "attr": {"dtype": {"type": "DT_FLOAT"}, "value": {"tensor": {"dtype": "DT_FLOAT", "tensorShape": {"dim": [{"size": "1"}, {"size": "1"}, {"size": "384"}]}}}}}, {"name": "StatefulPartitionedCall/Const_309", "op": "Const", "attr": {"dtype": {"type": "DT_FLOAT"}, "value": {"tensor": {"dtype": "DT_FLOAT", "tensorShape": {}}}}}, {"name": "StatefulPartitionedCall/Const_303", "op": "Const", "attr": {"value": {"tensor": {"dtype": "DT_FLOAT", "tensorShape": {}}}, "dtype": {"type": "DT_FLOAT"}}}, {"name": "StatefulPartitionedCall/Const_269", "op": "Const", "attr": {"value": {"tensor": {"dtype": "DT_FLOAT", "tensorShape": {}}}, "dtype": {"type": "DT_FLOAT"}}}, {"name": "StatefulPartitionedCall/Sum_9/reduction_indices", "op": "Const", "attr": {"dtype": {"type": "DT_INT32"}, "value": {"tensor": {"dtype": "DT_INT32", "tensorShape": {"dim": [{"size": "1"}]}}}}}, {"name": "ConstantFolding/StatefulPartitionedCall/truediv_11_recip", "op": "Const", "attr": {"value": {"tensor": {"dtype": "DT_FLOAT", "tensorShape": {}}}, "dtype": {"type": "DT_FLOAT"}}}, {"name": "StatefulPartitionedCall/Const_279", "op": "Const", "attr": {"dtype": {"type": "DT_INT32"}, "value": {"tensor": {"dtype": "DT_INT32", "tensorShape": {}}}}}, {"name": "StatefulPartitionedCall/Const_281", "op": "Const", "attr": {"value": {"tensor": {"dtype": "DT_INT32", "tensorShape": {}}}, "dtype": {"type": "DT_INT32"}}}, {"name": "StatefulPartitionedCall/Const_283", "op": "Const", "attr": {"value": {"tensor": {"dtype": "DT_FLOAT", "tensorShape": {}}}, "dtype": {"type": "DT_FLOAT"}}}, {"name": "StatefulPartitionedCall/Reshape_29", "op": "Const", "attr": {"dtype": {"type": "DT_FLOAT"}, "value": {"tensor": {"dtype": "DT_FLOAT", "tensorShape": {"dim": [{"size": "1"}, {"size": "1"}, {"size": "384"}]}}}}}, {"name": "StatefulPartitionedCall/Reshape_26", "op": "Const", "attr": {"dtype": {"type": "DT_FLOAT"}, "value": {"tensor": {"dtype": "DT_FLOAT", "tensorShape": {"dim": [{"size": "1"}, {"size": "1"}, {"size": "384"}]}}}}}, {"name": "StatefulPartitionedCall/jax2tf_arg_35/ReadVariableOp", "op": "Const", "attr": {"value": {"tensor": {"dtype": "DT_FLOAT", "tensorShape": {"dim": [{"size": "384"}, {"size": "6"}, {"size": "64"}]}}}, "dtype": {"type": "DT_FLOAT"}}}, {"name": "StatefulPartitionedCall/Reshape_23", "op": "Const", "attr": {"value": {"tensor": {"dtype": "DT_FLOAT", "tensorShape": {"dim": [{"size": "1"}, {"size": "1"}, {"size": "6"}, {"size": "64"}]}}}, "dtype": {"type": "DT_FLOAT"}}}, {"name": "StatefulPartitionedCall/jax2tf_arg_33/ReadVariableOp", "op": "Const", "attr": {"dtype": {"type": "DT_FLOAT"}, "value": {"tensor": {"dtype": "DT_FLOAT", "tensorShape": {"dim": [{"size": "384"}, {"size": "6"}, {"size": "64"}]}}}}}, {"name": "StatefulPartitionedCall/Reshape_21", "op": "Const", "attr": {"dtype": {"type": "DT_FLOAT"}, "value": {"tensor": {"dtype": "DT_FLOAT", "tensorShape": {"dim": [{"size": "1"}, {"size": "1"}, {"size": "6"}, {"size": "64"}]}}}}}, {"name": "ConstantFolding/StatefulPartitionedCall/truediv_8_recip", "op": "Const", "attr": {"value": {"tensor": {"dtype": "DT_FLOAT", "tensorShape": {}}}, "dtype": {"type": "DT_FLOAT"}}}, {"name": "StatefulPartitionedCall/Const_173", "op": "Const", "attr": {"dtype": {"type": "DT_FLOAT"}, "value": {"tensor": {"dtype": "DT_FLOAT", "tensorShape": {}}}}}, {"name": "StatefulPartitionedCall/Sum_6/reduction_indices", "op": "Const", "attr": {"value": {"tensor": {"dtype": "DT_INT32", "tensorShape": {"dim": [{"size": "1"}]}}}, "dtype": {"type": "DT_INT32"}}}, {"name": "ConstantFolding/StatefulPartitionedCall/truediv_7_recip", "op": "Const", "attr": {"dtype": {"type": "DT_FLOAT"}, "value": {"tensor": {"dtype": "DT_FLOAT", "tensorShape": {}}}}}, {"name": "StatefulPartitionedCall/Const_183", "op": "Const", "attr": {"dtype": {"type": "DT_INT32"}, "value": {"tensor": {"dtype": "DT_INT32", "tensorShape": {}}}}}, {"name": "StatefulPartitionedCall/Const_185", "op": "Const", "attr": {"dtype": {"type": "DT_INT32"}, "value": {"tensor": {"dtype": "DT_INT32", "tensorShape": {}}}}}, {"name": "StatefulPartitionedCall/Const_187", "op": "Const", "attr": {"value": {"tensor": {"dtype": "DT_FLOAT", "tensorShape": {}}}, "dtype": {"type": "DT_FLOAT"}}}, {"name": "StatefulPartitionedCall/Reshape_19", "op": "Const", "attr": {"dtype": {"type": "DT_FLOAT"}, "value": {"tensor": {"dtype": "DT_FLOAT", "tensorShape": {"dim": [{"size": "1"}, {"size": "1"}, {"size": "384"}]}}}}}, {"name": "StatefulPartitionedCall/Reshape_16", "op": "Const", "attr": {"value": {"tensor": {"dtype": "DT_FLOAT", "tensorShape": {"dim": [{"size": "1"}, {"size": "1"}, {"size": "384"}]}}}, "dtype": {"type": "DT_FLOAT"}}}, {"name": "StatefulPartitionedCall/Const_161", "op": "Const", "attr": {"value": {"tensor": {"dtype": "DT_FLOAT", "tensorShape": {}}}, "dtype": {"type": "DT_FLOAT"}}}, {"name": "StatefulPartitionedCall/Const_155", "op": "Const", "attr": {"dtype": {"type": "DT_FLOAT"}, "value": {"tensor": {"dtype": "DT_FLOAT", "tensorShape": {}}}}}, {"name": "StatefulPartitionedCall/Const_121", "op": "Const", "attr": {"value": {"tensor": {"dtype": "DT_FLOAT", "tensorShape": {}}}, "dtype": {"type": "DT_FLOAT"}}}, {"name": "StatefulPartitionedCall/Sum_4/reduction_indices", "op": "Const", "attr": {"dtype": {"type": "DT_INT32"}, "value": {"tensor": {"dtype": "DT_INT32", "tensorShape": {"dim": [{"size": "1"}]}}}}}, {"name": "ConstantFolding/StatefulPartitionedCall/truediv_5_recip", "op": "Const", "attr": {"dtype": {"type": "DT_FLOAT"}, "value": {"tensor": {"dtype": "DT_FLOAT", "tensorShape": {}}}}}, {"name": "StatefulPartitionedCall/Const_131", "op": "Const", "attr": {"dtype": {"type": "DT_INT32"}, "value": {"tensor": {"dtype": "DT_INT32", "tensorShape": {}}}}}, {"name": "StatefulPartitionedCall/Const_133", "op": "Const", "attr": {"value": {"tensor": {"dtype": "DT_INT32", "tensorShape": {}}}, "dtype": {"type": "DT_INT32"}}}, {"name": "StatefulPartitionedCall/Const_135", "op": "Const", "attr": {"value": {"tensor": {"dtype": "DT_FLOAT", "tensorShape": {}}}, "dtype": {"type": "DT_FLOAT"}}}, {"name": "StatefulPartitionedCall/Reshape_13", "op": "Const", "attr": {"dtype": {"type": "DT_FLOAT"}, "value": {"tensor": {"dtype": "DT_FLOAT", "tensorShape": {"dim": [{"size": "1"}, {"size": "1"}, {"size": "384"}]}}}}}, {"name": "StatefulPartitionedCall/Reshape_10", "op": "Const", "attr": {"dtype": {"type": "DT_FLOAT"}, "value": {"tensor": {"dtype": "DT_FLOAT", "tensorShape": {"dim": [{"size": "1"}, {"size": "1"}, {"size": "384"}]}}}}}, {"name": "StatefulPartitionedCall/jax2tf_arg_19/ReadVariableOp", "op": "Const", "attr": {"value": {"tensor": {"dtype": "DT_FLOAT", "tensorShape": {"dim": [{"size": "384"}, {"size": "6"}, {"size": "64"}]}}}, "dtype": {"type": "DT_FLOAT"}}}, {"name": "StatefulPartitionedCall/Reshape_7", "op": "Const", "attr": {"value": {"tensor": {"dtype": "DT_FLOAT", "tensorShape": {"dim": [{"size": "1"}, {"size": "1"}, {"size": "6"}, {"size": "64"}]}}}, "dtype": {"type": "DT_FLOAT"}}}, {"name": "StatefulPartitionedCall/jax2tf_arg_17/ReadVariableOp", "op": "Const", "attr": {"value": {"tensor": {"dtype": "DT_FLOAT", "tensorShape": {"dim": [{"size": "384"}, {"size": "6"}, {"size": "64"}]}}}, "dtype": {"type": "DT_FLOAT"}}}, {"name": "StatefulPartitionedCall/Reshape_5", "op": "Const", "attr": {"value": {"tensor": {"dtype": "DT_FLOAT", "tensorShape": {"dim": [{"size": "1"}, {"size": "1"}, {"size": "6"}, {"size": "64"}]}}}, "dtype": {"type": "DT_FLOAT"}}}, {"name": "ConstantFolding/StatefulPartitionedCall/truediv_2_recip", "op": "Const", "attr": {"dtype": {"type": "DT_FLOAT"}, "value": {"tensor": {"dtype": "DT_FLOAT", "tensorShape": {}}}}}, {"name": "StatefulPartitionedCall/Const_25", "op": "Const", "attr": {"dtype": {"type": "DT_FLOAT"}, "value": {"tensor": {"dtype": "DT_FLOAT", "tensorShape": {}}}}}, {"name": "StatefulPartitionedCall/Sum_1/reduction_indices", "op": "Const", "attr": {"value": {"tensor": {"dtype": "DT_INT32", "tensorShape": {"dim": [{"size": "1"}]}}}, "dtype": {"type": "DT_INT32"}}}, {"name": "ConstantFolding/StatefulPartitionedCall/truediv_1_recip", "op": "Const", "attr": {"value": {"tensor": {"dtype": "DT_FLOAT", "tensorShape": {}}}, "dtype": {"type": "DT_FLOAT"}}}, {"name": "StatefulPartitionedCall/Const_35", "op": "Const", "attr": {"dtype": {"type": "DT_INT32"}, "value": {"tensor": {"dtype": "DT_INT32", "tensorShape": {}}}}}, {"name": "StatefulPartitionedCall/Const_37", "op": "Const", "attr": {"dtype": {"type": "DT_INT32"}, "value": {"tensor": {"dtype": "DT_INT32", "tensorShape": {}}}}}, {"name": "StatefulPartitionedCall/Const_39", "op": "Const", "attr": {"value": {"tensor": {"dtype": "DT_FLOAT", "tensorShape": {}}}, "dtype": {"type": "DT_FLOAT"}}}, {"name": "StatefulPartitionedCall/Reshape_3", "op": "Const", "attr": {"dtype": {"type": "DT_FLOAT"}, "value": {"tensor": {"dtype": "DT_FLOAT", "tensorShape": {"dim": [{"size": "1"}, {"size": "1"}, {"size": "384"}]}}}}}, {"name": "StatefulPartitionedCall/jax2tf_arg_1/ReadVariableOp", "op": "Const", "attr": {"value": {"tensor": {"dtype": "DT_FLOAT", "tensorShape": {"dim": [{"size": "16000"}, {"size": "384"}]}}}, "dtype": {"type": "DT_FLOAT"}}}, {"name": "StatefulPartitionedCall/Const_1", "op": "Const", "attr": {"dtype": {"type": "DT_INT32"}, "value": {"tensor": {"dtype": "DT_INT32", "tensorShape": {}}}}}, {"name": "StatefulPartitionedCall/Const_3", "op": "Const", "attr": {"dtype": {"type": "DT_INT32"}, "value": {"tensor": {"dtype": "DT_INT32", "tensorShape": {}}}}}, {"name": "StatefulPartitionedCall/Const_7", "op": "Const", "attr": {"value": {"tensor": {"dtype": "DT_INT32", "tensorShape": {}}}, "dtype": {"type": "DT_INT32"}}}, {"name": "StatefulPartitionedCall/Const_9", "op": "Const", "attr": {"dtype": {"type": "DT_INT32"}, "value": {"tensor": {"dtype": "DT_INT32", "tensorShape": {}}}}}, {"name": "StatefulPartitionedCall/Const_13", "op": "Const", "attr": {"value": {"tensor": {"dtype": "DT_INT32", "tensorShape": {}}}, "dtype": {"type": "DT_INT32"}}}, {"name": "StatefulPartitionedCall/Const_15", "op": "Const", "attr": {"value": {"tensor": {"dtype": "DT_INT32", "tensorShape": {}}}, "dtype": {"type": "DT_INT32"}}}, {"name": "StatefulPartitionedCall/Sub", "op": "Const", "attr": {"dtype": {"type": "DT_INT32"}, "value": {"tensor": {"dtype": "DT_INT32", "tensorShape": {"dim": [{"size": "1"}]}}}}}, {"name": "StatefulPartitionedCall/clip_by_value/y", "op": "Const", "attr": {"dtype": {"type": "DT_INT32"}, "value": {"tensor": {"dtype": "DT_INT32", "tensorShape": {}}}}}, {"name": "StatefulPartitionedCall/GatherV2/axis", "op": "Const", "attr": {"dtype": {"type": "DT_INT32"}, "value": {"tensor": {"dtype": "DT_INT32", "tensorShape": {}}}}}, {"name": "StatefulPartitionedCall/jax2tf_arg_198/ReadVariableOp", "op": "Const", "attr": {"dtype": {"type": "DT_FLOAT"}, "value": {"tensor": {"dtype": "DT_FLOAT", "tensorShape": {"dim": [{"size": "1"}, {"size": "16"}, {"size": "384"}]}}}}}, {"name": "StatefulPartitionedCall/Sum/reduction_indices", "op": "Const", "attr": {"value": {"tensor": {"dtype": "DT_INT32", "tensorShape": {"dim": [{"size": "1"}]}}}, "dtype": {"type": "DT_INT32"}}}, {"name": "ConstantFolding/StatefulPartitionedCall/truediv_recip", "op": "Const", "attr": {"value": {"tensor": {"dtype": "DT_FLOAT", "tensorShape": {}}}, "dtype": {"type": "DT_FLOAT"}}}, {"name": "StatefulPartitionedCall/Const_29", "op": "Const", "attr": {"value": {"tensor": {"dtype": "DT_INT32", "tensorShape": {}}}, "dtype": {"type": "DT_INT32"}}}, {"name": "StatefulPartitionedCall/Const_31", "op": "Const", "attr": {"dtype": {"type": "DT_INT32"}, "value": {"tensor": {"dtype": "DT_INT32", "tensorShape": {}}}}}, {"name": "StatefulPartitionedCall/Reshape_4", "op": "Const", "attr": {"dtype": {"type": "DT_FLOAT"}, "value": {"tensor": {"dtype": "DT_FLOAT", "tensorShape": {"dim": [{"size": "1"}, {"size": "1"}, {"size": "384"}]}}}}}, {"name": "StatefulPartitionedCall/jax2tf_arg_13/ReadVariableOp", "op": "Const", "attr": {"dtype": {"type": "DT_FLOAT"}, "value": {"tensor": {"dtype": "DT_FLOAT", "tensorShape": {"dim": [{"size": "384"}, {"size": "6"}, {"size": "64"}]}}}}}, {"name": "StatefulPartitionedCall/Reshape_6", "op": "Const", "attr": {"dtype": {"type": "DT_FLOAT"}, "value": {"tensor": {"dtype": "DT_FLOAT", "tensorShape": {"dim": [{"size": "1"}, {"size": "1"}, {"size": "6"}, {"size": "64"}]}}}}}, {"name": "StatefulPartitionedCall/Max/reduction_indices", "op": "Const", "attr": {"dtype": {"type": "DT_INT32"}, "value": {"tensor": {"dtype": "DT_INT32", "tensorShape": {"dim": [{"size": "1"}]}}}}}, {"name": "StatefulPartitionedCall/Const_81", "op": "Const", "attr": {"dtype": {"type": "DT_INT32"}, "value": {"tensor": {"dtype": "DT_INT32", "tensorShape": {}}}}}, {"name": "StatefulPartitionedCall/Const_83", "op": "Const", "attr": {"value": {"tensor": {"dtype": "DT_INT32", "tensorShape": {}}}, "dtype": {"type": "DT_INT32"}}}, {"name": "StatefulPartitionedCall/Const_85", "op": "Const", "attr": {"dtype": {"type": "DT_INT32"}, "value": {"tensor": {"dtype": "DT_INT32", "tensorShape": {}}}}}, {"name": "StatefulPartitionedCall/Const_89", "op": "Const", "attr": {"dtype": {"type": "DT_INT32"}, "value": {"tensor": {"dtype": "DT_INT32", "tensorShape": {}}}}}, {"name": "StatefulPartitionedCall/Const_91", "op": "Const", "attr": {"dtype": {"type": "DT_INT32"}, "value": {"tensor": {"dtype": "DT_INT32", "tensorShape": {}}}}}, {"name": "StatefulPartitionedCall/Const_93", "op": "Const", "attr": {"dtype": {"type": "DT_INT32"}, "value": {"tensor": {"dtype": "DT_INT32", "tensorShape": {}}}}}, {"name": "StatefulPartitionedCall/Sum_2/reduction_indices", "op": "Const", "attr": {"value": {"tensor": {"dtype": "DT_INT32", "tensorShape": {"dim": [{"size": "1"}]}}}, "dtype": {"type": "DT_INT32"}}}, {"name": "StatefulPartitionedCall/Const_97", "op": "Const", "attr": {"dtype": {"type": "DT_INT32"}, "value": {"tensor": {"dtype": "DT_INT32", "tensorShape": {}}}}}, {"name": "StatefulPartitionedCall/Const_99", "op": "Const", "attr": {"dtype": {"type": "DT_INT32"}, "value": {"tensor": {"dtype": "DT_INT32", "tensorShape": {}}}}}, {"name": "StatefulPartitionedCall/Const_101", "op": "Const", "attr": {"dtype": {"type": "DT_INT32"}, "value": {"tensor": {"dtype": "DT_INT32", "tensorShape": {}}}}}, {"name": "StatefulPartitionedCall/Const_105", "op": "Const", "attr": {"value": {"tensor": {"dtype": "DT_INT32", "tensorShape": {}}}, "dtype": {"type": "DT_INT32"}}}, {"name": "StatefulPartitionedCall/Const_107", "op": "Const", "attr": {"dtype": {"type": "DT_INT32"}, "value": {"tensor": {"dtype": "DT_INT32", "tensorShape": {}}}}}, {"name": "StatefulPartitionedCall/Const_109", "op": "Const", "attr": {"dtype": {"type": "DT_INT32"}, "value": {"tensor": {"dtype": "DT_INT32", "tensorShape": {}}}}}, {"name": "StatefulPartitionedCall/transpose_7/perm", "op": "Const", "attr": {"dtype": {"type": "DT_INT32"}, "value": {"tensor": {"dtype": "DT_INT32", "tensorShape": {"dim": [{"size": "4"}]}}}}}, {"name": "StatefulPartitionedCall/jax2tf_arg_15/ReadVariableOp", "op": "Const", "attr": {"dtype": {"type": "DT_FLOAT"}, "value": {"tensor": {"dtype": "DT_FLOAT", "tensorShape": {"dim": [{"size": "6"}, {"size": "64"}, {"size": "384"}]}}}}}, {"name": "StatefulPartitionedCall/Sum_3/reduction_indices", "op": "Const", "attr": {"value": {"tensor": {"dtype": "DT_INT32", "tensorShape": {"dim": [{"size": "1"}]}}}, "dtype": {"type": "DT_INT32"}}}, {"name": "ConstantFolding/StatefulPartitionedCall/truediv_4_recip", "op": "Const", "attr": {"dtype": {"type": "DT_FLOAT"}, "value": {"tensor": {"dtype": "DT_FLOAT", "tensorShape": {}}}}}, {"name": "StatefulPartitionedCall/Const_125", "op": "Const", "attr": {"value": {"tensor": {"dtype": "DT_INT32", "tensorShape": {}}}, "dtype": {"type": "DT_INT32"}}}, {"name": "StatefulPartitionedCall/Const_127", "op": "Const", "attr": {"dtype": {"type": "DT_INT32"}, "value": {"tensor": {"dtype": "DT_INT32", "tensorShape": {}}}}}, {"name": "StatefulPartitionedCall/Reshape_14", "op": "Const", "attr": {"dtype": {"type": "DT_FLOAT"}, "value": {"tensor": {"dtype": "DT_FLOAT", "tensorShape": {"dim": [{"size": "1"}, {"size": "1"}, {"size": "384"}]}}}}}, {"name": "StatefulPartitionedCall/jax2tf_arg_9/ReadVariableOp", "op": "Const", "attr": {"value": {"tensor": {"dtype": "DT_FLOAT", "tensorShape": {"dim": [{"size": "384"}, {"size": "1536"}]}}}, "dtype": {"type": "DT_FLOAT"}}}, {"name": "StatefulPartitionedCall/Reshape_15", "op": "Const", "attr": {"value": {"tensor": {"dtype": "DT_FLOAT", "tensorShape": {"dim": [{"size": "1"}, {"size": "1"}, {"size": "1536"}]}}}, "dtype": {"type": "DT_FLOAT"}}}, {"name": "StatefulPartitionedCall/Const_157", "op": "Const", "attr": {"value": {"tensor": {"dtype": "DT_FLOAT", "tensorShape": {}}}, "dtype": {"type": "DT_FLOAT"}}}, {"name": "StatefulPartitionedCall/Const_159", "op": "Const", "attr": {"value": {"tensor": {"dtype": "DT_FLOAT", "tensorShape": {}}}, "dtype": {"type": "DT_FLOAT"}}}, {"name": "StatefulPartitionedCall/jax2tf_arg_11/ReadVariableOp", "op": "Const", "attr": {"value": {"tensor": {"dtype": "DT_FLOAT", "tensorShape": {"dim": [{"size": "1536"}, {"size": "384"}]}}}, "dtype": {"type": "DT_FLOAT"}}}, {"name": "StatefulPartitionedCall/Sum_5/reduction_indices", "op": "Const", "attr": {"value": {"tensor": {"dtype": "DT_INT32", "tensorShape": {"dim": [{"size": "1"}]}}}, "dtype": {"type": "DT_INT32"}}}, {"name": "ConstantFolding/StatefulPartitionedCall/truediv_6_recip", "op": "Const", "attr": {"dtype": {"type": "DT_FLOAT"}, "value": {"tensor": {"dtype": "DT_FLOAT", "tensorShape": {}}}}}, {"name": "StatefulPartitionedCall/Const_177", "op": "Const", "attr": {"value": {"tensor": {"dtype": "DT_INT32", "tensorShape": {}}}, "dtype": {"type": "DT_INT32"}}}, {"name": "StatefulPartitionedCall/Const_179", "op": "Const", "attr": {"value": {"tensor": {"dtype": "DT_INT32", "tensorShape": {}}}, "dtype": {"type": "DT_INT32"}}}, {"name": "StatefulPartitionedCall/Reshape_20", "op": "Const", "attr": {"value": {"tensor": {"dtype": "DT_FLOAT", "tensorShape": {"dim": [{"size": "1"}, {"size": "1"}, {"size": "384"}]}}}, "dtype": {"type": "DT_FLOAT"}}}, {"name": "StatefulPartitionedCall/jax2tf_arg_29/ReadVariableOp", "op": "Const", "attr": {"dtype": {"type": "DT_FLOAT"}, "value": {"tensor": {"dtype": "DT_FLOAT", "tensorShape": {"dim": [{"size": "384"}, {"size": "6"}, {"size": "64"}]}}}}}, {"name": "StatefulPartitionedCall/Reshape_22", "op": "Const", "attr": {"dtype": {"type": "DT_FLOAT"}, "value": {"tensor": {"dtype": "DT_FLOAT", "tensorShape": {"dim": [{"size": "1"}, {"size": "1"}, {"size": "6"}, {"size": "64"}]}}}}}, {"name": "StatefulPartitionedCall/Max_1/reduction_indices", "op": "Const", "attr": {"value": {"tensor": {"dtype": "DT_INT32", "tensorShape": {"dim": [{"size": "1"}]}}}, "dtype": {"type": "DT_INT32"}}}, {"name": "StatefulPartitionedCall/Const_229", "op": "Const", "attr": {"value": {"tensor": {"dtype": "DT_INT32", "tensorShape": {}}}, "dtype": {"type": "DT_INT32"}}}, {"name": "StatefulPartitionedCall/Const_231", "op": "Const", "attr": {"dtype": {"type": "DT_INT32"}, "value": {"tensor": {"dtype": "DT_INT32", "tensorShape": {}}}}}, {"name": "StatefulPartitionedCall/Const_233", "op": "Const", "attr": {"value": {"tensor": {"dtype": "DT_INT32", "tensorShape": {}}}, "dtype": {"type": "DT_INT32"}}}, {"name": "StatefulPartitionedCall/Const_237", "op": "Const", "attr": {"value": {"tensor": {"dtype": "DT_INT32", "tensorShape": {}}}, "dtype": {"type": "DT_INT32"}}}, {"name": "StatefulPartitionedCall/Const_239", "op": "Const", "attr": {"dtype": {"type": "DT_INT32"}, "value": {"tensor": {"dtype": "DT_INT32", "tensorShape": {}}}}}, {"name": "StatefulPartitionedCall/Const_241", "op": "Const", "attr": {"value": {"tensor": {"dtype": "DT_INT32", "tensorShape": {}}}, "dtype": {"type": "DT_INT32"}}}, {"name": "StatefulPartitionedCall/Sum_7/reduction_indices", "op": "Const", "attr": {"dtype": {"type": "DT_INT32"}, "value": {"tensor": {"dtype": "DT_INT32", "tensorShape": {"dim": [{"size": "1"}]}}}}}, {"name": "StatefulPartitionedCall/Const_245", "op": "Const", "attr": {"value": {"tensor": {"dtype": "DT_INT32", "tensorShape": {}}}, "dtype": {"type": "DT_INT32"}}}, {"name": "StatefulPartitionedCall/Const_247", "op": "Const", "attr": {"dtype": {"type": "DT_INT32"}, "value": {"tensor": {"dtype": "DT_INT32", "tensorShape": {}}}}}, {"name": "StatefulPartitionedCall/Const_249", "op": "Const", "attr": {"dtype": {"type": "DT_INT32"}, "value": {"tensor": {"dtype": "DT_INT32", "tensorShape": {}}}}}, {"name": "StatefulPartitionedCall/Const_253", "op": "Const", "attr": {"dtype": {"type": "DT_INT32"}, "value": {"tensor": {"dtype": "DT_INT32", "tensorShape": {}}}}}, {"name": "StatefulPartitionedCall/Const_255", "op": "Const", "attr": {"dtype": {"type": "DT_INT32"}, "value": {"tensor": {"dtype": "DT_INT32", "tensorShape": {}}}}}, {"name": "StatefulPartitionedCall/Const_257", "op": "Const", "attr": {"dtype": {"type": "DT_INT32"}, "value": {"tensor": {"dtype": "DT_INT32", "tensorShape": {}}}}}, {"name": "StatefulPartitionedCall/transpose_22/perm", "op": "Const", "attr": {"value": {"tensor": {"dtype": "DT_INT32", "tensorShape": {"dim": [{"size": "4"}]}}}, "dtype": {"type": "DT_INT32"}}}, {"name": "StatefulPartitionedCall/jax2tf_arg_31/ReadVariableOp", "op": "Const", "attr": {"value": {"tensor": {"dtype": "DT_FLOAT", "tensorShape": {"dim": [{"size": "6"}, {"size": "64"}, {"size": "384"}]}}}, "dtype": {"type": "DT_FLOAT"}}}, {"name": "StatefulPartitionedCall/Sum_8/reduction_indices", "op": "Const", "attr": {"value": {"tensor": {"dtype": "DT_INT32", "tensorShape": {"dim": [{"size": "1"}]}}}, "dtype": {"type": "DT_INT32"}}}, {"name": "ConstantFolding/StatefulPartitionedCall/truediv_10_recip", "op": "Const", "attr": {"dtype": {"type": "DT_FLOAT"}, "value": {"tensor": {"dtype": "DT_FLOAT", "tensorShape": {}}}}}, {"name": "StatefulPartitionedCall/Const_273", "op": "Const", "attr": {"dtype": {"type": "DT_INT32"}, "value": {"tensor": {"dtype": "DT_INT32", "tensorShape": {}}}}}, {"name": "StatefulPartitionedCall/Const_275", "op": "Const", "attr": {"value": {"tensor": {"dtype": "DT_INT32", "tensorShape": {}}}, "dtype": {"type": "DT_INT32"}}}, {"name": "StatefulPartitionedCall/Reshape_30", "op": "Const", "attr": {"value": {"tensor": {"dtype": "DT_FLOAT", "tensorShape": {"dim": [{"size": "1"}, {"size": "1"}, {"size": "384"}]}}}, "dtype": {"type": "DT_FLOAT"}}}, {"name": "StatefulPartitionedCall/jax2tf_arg_25/ReadVariableOp", "op": "Const", "attr": {"value": {"tensor": {"dtype": "DT_FLOAT", "tensorShape": {"dim": [{"size": "384"}, {"size": "1536"}]}}}, "dtype": {"type": "DT_FLOAT"}}}, {"name": "StatefulPartitionedCall/Reshape_31", "op": "Const", "attr": {"value": {"tensor": {"dtype": "DT_FLOAT", "tensorShape": {"dim": [{"size": "1"}, {"size": "1"}, {"size": "1536"}]}}}, "dtype": {"type": "DT_FLOAT"}}}, {"name": "StatefulPartitionedCall/Const_305", "op": "Const", "attr": {"value": {"tensor": {"dtype": "DT_FLOAT", "tensorShape": {}}}, "dtype": {"type": "DT_FLOAT"}}}, {"name": "StatefulPartitionedCall/Const_307", "op": "Const", "attr": {"dtype": {"type": "DT_FLOAT"}, "value": {"tensor": {"dtype": "DT_FLOAT", "tensorShape": {}}}}}, {"name": "StatefulPartitionedCall/jax2tf_arg_27/ReadVariableOp", "op": "Const", "attr": {"value": {"tensor": {"dtype": "DT_FLOAT", "tensorShape": {"dim": [{"size": "1536"}, {"size": "384"}]}}}, "dtype": {"type": "DT_FLOAT"}}}, {"name": "StatefulPartitionedCall/Sum_10/reduction_indices", "op": "Const", "attr": {"dtype": {"type": "DT_INT32"}, "value": {"tensor": {"dtype": "DT_INT32", "tensorShape": {"dim": [{"size": "1"}]}}}}}, {"name": "ConstantFolding/StatefulPartitionedCall/truediv_12_recip", "op": "Const", "attr": {"dtype": {"type": "DT_FLOAT"}, "value": {"tensor": {"dtype": "DT_FLOAT", "tensorShape": {}}}}}, {"name": "StatefulPartitionedCall/Const_325", "op": "Const", "attr": {"dtype": {"type": "DT_INT32"}, "value": {"tensor": {"dtype": "DT_INT32", "tensorShape": {}}}}}, {"name": "StatefulPartitionedCall/Const_327", "op": "Const", "attr": {"dtype": {"type": "DT_INT32"}, "value": {"tensor": {"dtype": "DT_INT32", "tensorShape": {}}}}}, {"name": "StatefulPartitionedCall/Reshape_36", "op": "Const", "attr": {"value": {"tensor": {"dtype": "DT_FLOAT", "tensorShape": {"dim": [{"size": "1"}, {"size": "1"}, {"size": "384"}]}}}, "dtype": {"type": "DT_FLOAT"}}}, {"name": "StatefulPartitionedCall/jax2tf_arg_77/ReadVariableOp", "op": "Const", "attr": {"value": {"tensor": {"dtype": "DT_FLOAT", "tensorShape": {"dim": [{"size": "384"}, {"size": "6"}, {"size": "64"}]}}}, "dtype": {"type": "DT_FLOAT"}}}, {"name": "StatefulPartitionedCall/Reshape_38", "op": "Const", "attr": {"dtype": {"type": "DT_FLOAT"}, "value": {"tensor": {"dtype": "DT_FLOAT", "tensorShape": {"dim": [{"size": "1"}, {"size": "1"}, {"size": "6"}, {"size": "64"}]}}}}}, {"name": "StatefulPartitionedCall/Max_2/reduction_indices", "op": "Const", "attr": {"value": {"tensor": {"dtype": "DT_INT32", "tensorShape": {"dim": [{"size": "1"}]}}}, "dtype": {"type": "DT_INT32"}}}, {"name": "StatefulPartitionedCall/Const_377", "op": "Const", "attr": {"value": {"tensor": {"dtype": "DT_INT32", "tensorShape": {}}}, "dtype": {"type": "DT_INT32"}}}, {"name": "StatefulPartitionedCall/Const_379", "op": "Const", "attr": {"value": {"tensor": {"dtype": "DT_INT32", "tensorShape": {}}}, "dtype": {"type": "DT_INT32"}}}, {"name": "StatefulPartitionedCall/Const_381", "op": "Const", "attr": {"value": {"tensor": {"dtype": "DT_INT32", "tensorShape": {}}}, "dtype": {"type": "DT_INT32"}}}, {"name": "StatefulPartitionedCall/Const_385", "op": "Const", "attr": {"dtype": {"type": "DT_INT32"}, "value": {"tensor": {"dtype": "DT_INT32", "tensorShape": {}}}}}, {"name": "StatefulPartitionedCall/Const_387", "op": "Const", "attr": {"dtype": {"type": "DT_INT32"}, "value": {"tensor": {"dtype": "DT_INT32", "tensorShape": {}}}}}, {"name": "StatefulPartitionedCall/Const_389", "op": "Const", "attr": {"dtype": {"type": "DT_INT32"}, "value": {"tensor": {"dtype": "DT_INT32", "tensorShape": {}}}}}, {"name": "StatefulPartitionedCall/Sum_12/reduction_indices", "op": "Const", "attr": {"value": {"tensor": {"dtype": "DT_INT32", "tensorShape": {"dim": [{"size": "1"}]}}}, "dtype": {"type": "DT_INT32"}}}, {"name": "StatefulPartitionedCall/Const_393", "op": "Const", "attr": {"dtype": {"type": "DT_INT32"}, "value": {"tensor": {"dtype": "DT_INT32", "tensorShape": {}}}}}, {"name": "StatefulPartitionedCall/Const_395", "op": "Const", "attr": {"dtype": {"type": "DT_INT32"}, "value": {"tensor": {"dtype": "DT_INT32", "tensorShape": {}}}}}, {"name": "StatefulPartitionedCall/Const_397", "op": "Const", "attr": {"value": {"tensor": {"dtype": "DT_INT32", "tensorShape": {}}}, "dtype": {"type": "DT_INT32"}}}, {"name": "StatefulPartitionedCall/Const_401", "op": "Const", "attr": {"value": {"tensor": {"dtype": "DT_INT32", "tensorShape": {}}}, "dtype": {"type": "DT_INT32"}}}, {"name": "StatefulPartitionedCall/Const_403", "op": "Const", "attr": {"value": {"tensor": {"dtype": "DT_INT32", "tensorShape": {}}}, "dtype": {"type": "DT_INT32"}}}, {"name": "StatefulPartitionedCall/Const_405", "op": "Const", "attr": {"dtype": {"type": "DT_INT32"}, "value": {"tensor": {"dtype": "DT_INT32", "tensorShape": {}}}}}, {"name": "StatefulPartitionedCall/transpose_37/perm", "op": "Const", "attr": {"dtype": {"type": "DT_INT32"}, "value": {"tensor": {"dtype": "DT_INT32", "tensorShape": {"dim": [{"size": "4"}]}}}}}, {"name": "StatefulPartitionedCall/jax2tf_arg_79/ReadVariableOp", "op": "Const", "attr": {"value": {"tensor": {"dtype": "DT_FLOAT", "tensorShape": {"dim": [{"size": "6"}, {"size": "64"}, {"size": "384"}]}}}, "dtype": {"type": "DT_FLOAT"}}}, {"name": "StatefulPartitionedCall/Sum_13/reduction_indices", "op": "Const", "attr": {"dtype": {"type": "DT_INT32"}, "value": {"tensor": {"dtype": "DT_INT32", "tensorShape": {"dim": [{"size": "1"}]}}}}}, {"name": "ConstantFolding/StatefulPartitionedCall/truediv_16_recip", "op": "Const", "attr": {"value": {"tensor": {"dtype": "DT_FLOAT", "tensorShape": {}}}, "dtype": {"type": "DT_FLOAT"}}}, {"name": "StatefulPartitionedCall/Const_421", "op": "Const", "attr": {"value": {"tensor": {"dtype": "DT_INT32", "tensorShape": {}}}, "dtype": {"type": "DT_INT32"}}}, {"name": "StatefulPartitionedCall/Const_423", "op": "Const", "attr": {"value": {"tensor": {"dtype": "DT_INT32", "tensorShape": {}}}, "dtype": {"type": "DT_INT32"}}}, {"name": "StatefulPartitionedCall/Reshape_46", "op": "Const", "attr": {"value": {"tensor": {"dtype": "DT_FLOAT", "tensorShape": {"dim": [{"size": "1"}, {"size": "1"}, {"size": "384"}]}}}, "dtype": {"type": "DT_FLOAT"}}}, {"name": "StatefulPartitionedCall/jax2tf_arg_73/ReadVariableOp", "op": "Const", "attr": {"dtype": {"type": "DT_FLOAT"}, "value": {"tensor": {"dtype": "DT_FLOAT", "tensorShape": {"dim": [{"size": "384"}, {"size": "1536"}]}}}}}, {"name": "StatefulPartitionedCall/Reshape_47", "op": "Const", "attr": {"dtype": {"type": "DT_FLOAT"}, "value": {"tensor": {"dtype": "DT_FLOAT", "tensorShape": {"dim": [{"size": "1"}, {"size": "1"}, {"size": "1536"}]}}}}}, {"name": "StatefulPartitionedCall/Const_453", "op": "Const", "attr": {"value": {"tensor": {"dtype": "DT_FLOAT", "tensorShape": {}}}, "dtype": {"type": "DT_FLOAT"}}}, {"name": "StatefulPartitionedCall/Const_455", "op": "Const", "attr": {"dtype": {"type": "DT_FLOAT"}, "value": {"tensor": {"dtype": "DT_FLOAT", "tensorShape": {}}}}}, {"name": "StatefulPartitionedCall/jax2tf_arg_75/ReadVariableOp", "op": "Const", "attr": {"dtype": {"type": "DT_FLOAT"}, "value": {"tensor": {"dtype": "DT_FLOAT", "tensorShape": {"dim": [{"size": "1536"}, {"size": "384"}]}}}}}, {"name": "StatefulPartitionedCall/Sum_15/reduction_indices", "op": "Const", "attr": {"dtype": {"type": "DT_INT32"}, "value": {"tensor": {"dtype": "DT_INT32", "tensorShape": {"dim": [{"size": "1"}]}}}}}, {"name": "ConstantFolding/StatefulPartitionedCall/truediv_18_recip", "op": "Const", "attr": {"value": {"tensor": {"dtype": "DT_FLOAT", "tensorShape": {}}}, "dtype": {"type": "DT_FLOAT"}}}, {"name": "StatefulPartitionedCall/Const_473", "op": "Const", "attr": {"value": {"tensor": {"dtype": "DT_INT32", "tensorShape": {}}}, "dtype": {"type": "DT_INT32"}}}, {"name": "StatefulPartitionedCall/Const_475", "op": "Const", "attr": {"value": {"tensor": {"dtype": "DT_INT32", "tensorShape": {}}}, "dtype": {"type": "DT_INT32"}}}, {"name": "StatefulPartitionedCall/Reshape_52", "op": "Const", "attr": {"value": {"tensor": {"dtype": "DT_FLOAT", "tensorShape": {"dim": [{"size": "1"}, {"size": "1"}, {"size": "384"}]}}}, "dtype": {"type": "DT_FLOAT"}}}, {"name": "StatefulPartitionedCall/jax2tf_arg_93/ReadVariableOp", "op": "Const", "attr": {"value": {"tensor": {"dtype": "DT_FLOAT", "tensorShape": {"dim": [{"size": "384"}, {"size": "6"}, {"size": "64"}]}}}, "dtype": {"type": "DT_FLOAT"}}}, {"name": "StatefulPartitionedCall/Reshape_54", "op": "Const", "attr": {"value": {"tensor": {"dtype": "DT_FLOAT", "tensorShape": {"dim": [{"size": "1"}, {"size": "1"}, {"size": "6"}, {"size": "64"}]}}}, "dtype": {"type": "DT_FLOAT"}}}, {"name": "StatefulPartitionedCall/Max_3/reduction_indices", "op": "Const", "attr": {"dtype": {"type": "DT_INT32"}, "value": {"tensor": {"dtype": "DT_INT32", "tensorShape": {"dim": [{"size": "1"}]}}}}}, {"name": "StatefulPartitionedCall/Const_525", "op": "Const", "attr": {"value": {"tensor": {"dtype": "DT_INT32", "tensorShape": {}}}, "dtype": {"type": "DT_INT32"}}}, {"name": "StatefulPartitionedCall/Const_527", "op": "Const", "attr": {"value": {"tensor": {"dtype": "DT_INT32", "tensorShape": {}}}, "dtype": {"type": "DT_INT32"}}}, {"name": "StatefulPartitionedCall/Const_529", "op": "Const", "attr": {"dtype": {"type": "DT_INT32"}, "value": {"tensor": {"dtype": "DT_INT32", "tensorShape": {}}}}}, {"name": "StatefulPartitionedCall/Const_533", "op": "Const", "attr": {"dtype": {"type": "DT_INT32"}, "value": {"tensor": {"dtype": "DT_INT32", "tensorShape": {}}}}}, {"name": "StatefulPartitionedCall/Const_535", "op": "Const", "attr": {"value": {"tensor": {"dtype": "DT_INT32", "tensorShape": {}}}, "dtype": {"type": "DT_INT32"}}}, {"name": "StatefulPartitionedCall/Const_537", "op": "Const", "attr": {"dtype": {"type": "DT_INT32"}, "value": {"tensor": {"dtype": "DT_INT32", "tensorShape": {}}}}}, {"name": "StatefulPartitionedCall/Sum_17/reduction_indices", "op": "Const", "attr": {"dtype": {"type": "DT_INT32"}, "value": {"tensor": {"dtype": "DT_INT32", "tensorShape": {"dim": [{"size": "1"}]}}}}}, {"name": "StatefulPartitionedCall/Const_541", "op": "Const", "attr": {"value": {"tensor": {"dtype": "DT_INT32", "tensorShape": {}}}, "dtype": {"type": "DT_INT32"}}}, {"name": "StatefulPartitionedCall/Const_543", "op": "Const", "attr": {"dtype": {"type": "DT_INT32"}, "value": {"tensor": {"dtype": "DT_INT32", "tensorShape": {}}}}}, {"name": "StatefulPartitionedCall/Const_545", "op": "Const", "attr": {"dtype": {"type": "DT_INT32"}, "value": {"tensor": {"dtype": "DT_INT32", "tensorShape": {}}}}}, {"name": "StatefulPartitionedCall/Const_549", "op": "Const", "attr": {"dtype": {"type": "DT_INT32"}, "value": {"tensor": {"dtype": "DT_INT32", "tensorShape": {}}}}}, {"name": "StatefulPartitionedCall/Const_551", "op": "Const", "attr": {"value": {"tensor": {"dtype": "DT_INT32", "tensorShape": {}}}, "dtype": {"type": "DT_INT32"}}}, {"name": "StatefulPartitionedCall/Const_553", "op": "Const", "attr": {"dtype": {"type": "DT_INT32"}, "value": {"tensor": {"dtype": "DT_INT32", "tensorShape": {}}}}}, {"name": "StatefulPartitionedCall/transpose_52/perm", "op": "Const", "attr": {"value": {"tensor": {"dtype": "DT_INT32", "tensorShape": {"dim": [{"size": "4"}]}}}, "dtype": {"type": "DT_INT32"}}}, {"name": "StatefulPartitionedCall/jax2tf_arg_95/ReadVariableOp", "op": "Const", "attr": {"dtype": {"type": "DT_FLOAT"}, "value": {"tensor": {"dtype": "DT_FLOAT", "tensorShape": {"dim": [{"size": "6"}, {"size": "64"}, {"size": "384"}]}}}}}, {"name": "StatefulPartitionedCall/Sum_18/reduction_indices", "op": "Const", "attr": {"value": {"tensor": {"dtype": "DT_INT32", "tensorShape": {"dim": [{"size": "1"}]}}}, "dtype": {"type": "DT_INT32"}}}, {"name": "ConstantFolding/StatefulPartitionedCall/truediv_22_recip", "op": "Const", "attr": {"value": {"tensor": {"dtype": "DT_FLOAT", "tensorShape": {}}}, "dtype": {"type": "DT_FLOAT"}}}, {"name": "StatefulPartitionedCall/Const_569", "op": "Const", "attr": {"value": {"tensor": {"dtype": "DT_INT32", "tensorShape": {}}}, "dtype": {"type": "DT_INT32"}}}, {"name": "StatefulPartitionedCall/Const_571", "op": "Const", "attr": {"value": {"tensor": {"dtype": "DT_INT32", "tensorShape": {}}}, "dtype": {"type": "DT_INT32"}}}, {"name": "StatefulPartitionedCall/Reshape_62", "op": "Const", "attr": {"dtype": {"type": "DT_FLOAT"}, "value": {"tensor": {"dtype": "DT_FLOAT", "tensorShape": {"dim": [{"size": "1"}, {"size": "1"}, {"size": "384"}]}}}}}, {"name": "StatefulPartitionedCall/jax2tf_arg_89/ReadVariableOp", "op": "Const", "attr": {"dtype": {"type": "DT_FLOAT"}, "value": {"tensor": {"dtype": "DT_FLOAT", "tensorShape": {"dim": [{"size": "384"}, {"size": "1536"}]}}}}}, {"name": "StatefulPartitionedCall/Reshape_63", "op": "Const", "attr": {"dtype": {"type": "DT_FLOAT"}, "value": {"tensor": {"dtype": "DT_FLOAT", "tensorShape": {"dim": [{"size": "1"}, {"size": "1"}, {"size": "1536"}]}}}}}, {"name": "StatefulPartitionedCall/Const_601", "op": "Const", "attr": {"dtype": {"type": "DT_FLOAT"}, "value": {"tensor": {"dtype": "DT_FLOAT", "tensorShape": {}}}}}, {"name": "StatefulPartitionedCall/Const_603", "op": "Const", "attr": {"dtype": {"type": "DT_FLOAT"}, "value": {"tensor": {"dtype": "DT_FLOAT", "tensorShape": {}}}}}, {"name": "StatefulPartitionedCall/jax2tf_arg_91/ReadVariableOp", "op": "Const", "attr": {"value": {"tensor": {"dtype": "DT_FLOAT", "tensorShape": {"dim": [{"size": "1536"}, {"size": "384"}]}}}, "dtype": {"type": "DT_FLOAT"}}}, {"name": "StatefulPartitionedCall/Sum_20/reduction_indices", "op": "Const", "attr": {"value": {"tensor": {"dtype": "DT_INT32", "tensorShape": {"dim": [{"size": "1"}]}}}, "dtype": {"type": "DT_INT32"}}}, {"name": "ConstantFolding/StatefulPartitionedCall/truediv_24_recip", "op": "Const", "attr": {"dtype": {"type": "DT_FLOAT"}, "value": {"tensor": {"dtype": "DT_FLOAT", "tensorShape": {}}}}}, {"name": "StatefulPartitionedCall/Const_621", "op": "Const", "attr": {"dtype": {"type": "DT_INT32"}, "value": {"tensor": {"dtype": "DT_INT32", "tensorShape": {}}}}}, {"name": "StatefulPartitionedCall/Const_623", "op": "Const", "attr": {"value": {"tensor": {"dtype": "DT_INT32", "tensorShape": {}}}, "dtype": {"type": "DT_INT32"}}}, {"name": "StatefulPartitionedCall/Reshape_68", "op": "Const", "attr": {"dtype": {"type": "DT_FLOAT"}, "value": {"tensor": {"dtype": "DT_FLOAT", "tensorShape": {"dim": [{"size": "1"}, {"size": "1"}, {"size": "384"}]}}}}}, {"name": "StatefulPartitionedCall/jax2tf_arg_109/ReadVariableOp", "op": "Const", "attr": {"dtype": {"type": "DT_FLOAT"}, "value": {"tensor": {"dtype": "DT_FLOAT", "tensorShape": {"dim": [{"size": "384"}, {"size": "6"}, {"size": "64"}]}}}}}, {"name": "StatefulPartitionedCall/Reshape_70", "op": "Const", "attr": {"dtype": {"type": "DT_FLOAT"}, "value": {"tensor": {"dtype": "DT_FLOAT", "tensorShape": {"dim": [{"size": "1"}, {"size": "1"}, {"size": "6"}, {"size": "64"}]}}}}}, {"name": "StatefulPartitionedCall/Max_4/reduction_indices", "op": "Const", "attr": {"dtype": {"type": "DT_INT32"}, "value": {"tensor": {"dtype": "DT_INT32", "tensorShape": {"dim": [{"size": "1"}]}}}}}, {"name": "StatefulPartitionedCall/Const_673", "op": "Const", "attr": {"value": {"tensor": {"dtype": "DT_INT32", "tensorShape": {}}}, "dtype": {"type": "DT_INT32"}}}, {"name": "StatefulPartitionedCall/Const_675", "op": "Const", "attr": {"dtype": {"type": "DT_INT32"}, "value": {"tensor": {"dtype": "DT_INT32", "tensorShape": {}}}}}, {"name": "StatefulPartitionedCall/Const_677", "op": "Const", "attr": {"value": {"tensor": {"dtype": "DT_INT32", "tensorShape": {}}}, "dtype": {"type": "DT_INT32"}}}, {"name": "StatefulPartitionedCall/Const_681", "op": "Const", "attr": {"value": {"tensor": {"dtype": "DT_INT32", "tensorShape": {}}}, "dtype": {"type": "DT_INT32"}}}, {"name": "StatefulPartitionedCall/Const_683", "op": "Const", "attr": {"dtype": {"type": "DT_INT32"}, "value": {"tensor": {"dtype": "DT_INT32", "tensorShape": {}}}}}, {"name": "StatefulPartitionedCall/Const_685", "op": "Const", "attr": {"value": {"tensor": {"dtype": "DT_INT32", "tensorShape": {}}}, "dtype": {"type": "DT_INT32"}}}, {"name": "StatefulPartitionedCall/Sum_22/reduction_indices", "op": "Const", "attr": {"dtype": {"type": "DT_INT32"}, "value": {"tensor": {"dtype": "DT_INT32", "tensorShape": {"dim": [{"size": "1"}]}}}}}, {"name": "StatefulPartitionedCall/Const_689", "op": "Const", "attr": {"value": {"tensor": {"dtype": "DT_INT32", "tensorShape": {}}}, "dtype": {"type": "DT_INT32"}}}, {"name": "StatefulPartitionedCall/Const_691", "op": "Const", "attr": {"dtype": {"type": "DT_INT32"}, "value": {"tensor": {"dtype": "DT_INT32", "tensorShape": {}}}}}, {"name": "StatefulPartitionedCall/Const_693", "op": "Const", "attr": {"dtype": {"type": "DT_INT32"}, "value": {"tensor": {"dtype": "DT_INT32", "tensorShape": {}}}}}, {"name": "StatefulPartitionedCall/Const_697", "op": "Const", "attr": {"dtype": {"type": "DT_INT32"}, "value": {"tensor": {"dtype": "DT_INT32", "tensorShape": {}}}}}, {"name": "StatefulPartitionedCall/Const_699", "op": "Const", "attr": {"dtype": {"type": "DT_INT32"}, "value": {"tensor": {"dtype": "DT_INT32", "tensorShape": {}}}}}, {"name": "StatefulPartitionedCall/Const_701", "op": "Const", "attr": {"value": {"tensor": {"dtype": "DT_INT32", "tensorShape": {}}}, "dtype": {"type": "DT_INT32"}}}, {"name": "StatefulPartitionedCall/transpose_67/perm", "op": "Const", "attr": {"dtype": {"type": "DT_INT32"}, "value": {"tensor": {"dtype": "DT_INT32", "tensorShape": {"dim": [{"size": "4"}]}}}}}, {"name": "StatefulPartitionedCall/jax2tf_arg_111/ReadVariableOp", "op": "Const", "attr": {"dtype": {"type": "DT_FLOAT"}, "value": {"tensor": {"dtype": "DT_FLOAT", "tensorShape": {"dim": [{"size": "6"}, {"size": "64"}, {"size": "384"}]}}}}}, {"name": "StatefulPartitionedCall/Sum_23/reduction_indices", "op": "Const", "attr": {"value": {"tensor": {"dtype": "DT_INT32", "tensorShape": {"dim": [{"size": "1"}]}}}, "dtype": {"type": "DT_INT32"}}}, {"name": "ConstantFolding/StatefulPartitionedCall/truediv_28_recip", "op": "Const", "attr": {"dtype": {"type": "DT_FLOAT"}, "value": {"tensor": {"dtype": "DT_FLOAT", "tensorShape": {}}}}}, {"name": "StatefulPartitionedCall/Const_717", "op": "Const", "attr": {"dtype": {"type": "DT_INT32"}, "value": {"tensor": {"dtype": "DT_INT32", "tensorShape": {}}}}}, {"name": "StatefulPartitionedCall/Const_719", "op": "Const", "attr": {"dtype": {"type": "DT_INT32"}, "value": {"tensor": {"dtype": "DT_INT32", "tensorShape": {}}}}}, {"name": "StatefulPartitionedCall/Reshape_78", "op": "Const", "attr": {"dtype": {"type": "DT_FLOAT"}, "value": {"tensor": {"dtype": "DT_FLOAT", "tensorShape": {"dim": [{"size": "1"}, {"size": "1"}, {"size": "384"}]}}}}}, {"name": "StatefulPartitionedCall/jax2tf_arg_105/ReadVariableOp", "op": "Const", "attr": {"dtype": {"type": "DT_FLOAT"}, "value": {"tensor": {"dtype": "DT_FLOAT", "tensorShape": {"dim": [{"size": "384"}, {"size": "1536"}]}}}}}, {"name": "StatefulPartitionedCall/Reshape_79", "op": "Const", "attr": {"value": {"tensor": {"dtype": "DT_FLOAT", "tensorShape": {"dim": [{"size": "1"}, {"size": "1"}, {"size": "1536"}]}}}, "dtype": {"type": "DT_FLOAT"}}}, {"name": "StatefulPartitionedCall/Const_749", "op": "Const", "attr": {"value": {"tensor": {"dtype": "DT_FLOAT", "tensorShape": {}}}, "dtype": {"type": "DT_FLOAT"}}}, {"name": "StatefulPartitionedCall/Const_751", "op": "Const", "attr": {"value": {"tensor": {"dtype": "DT_FLOAT", "tensorShape": {}}}, "dtype": {"type": "DT_FLOAT"}}}, {"name": "StatefulPartitionedCall/jax2tf_arg_107/ReadVariableOp", "op": "Const", "attr": {"dtype": {"type": "DT_FLOAT"}, "value": {"tensor": {"dtype": "DT_FLOAT", "tensorShape": {"dim": [{"size": "1536"}, {"size": "384"}]}}}}}, {"name": "StatefulPartitionedCall/Sum_25/reduction_indices", "op": "Const", "attr": {"dtype": {"type": "DT_INT32"}, "value": {"tensor": {"dtype": "DT_INT32", "tensorShape": {"dim": [{"size": "1"}]}}}}}, {"name": "ConstantFolding/StatefulPartitionedCall/truediv_30_recip", "op": "Const", "attr": {"value": {"tensor": {"dtype": "DT_FLOAT", "tensorShape": {}}}, "dtype": {"type": "DT_FLOAT"}}}, {"name": "StatefulPartitionedCall/Const_769", "op": "Const", "attr": {"dtype": {"type": "DT_INT32"}, "value": {"tensor": {"dtype": "DT_INT32", "tensorShape": {}}}}}, {"name": "StatefulPartitionedCall/Const_771", "op": "Const", "attr": {"dtype": {"type": "DT_INT32"}, "value": {"tensor": {"dtype": "DT_INT32", "tensorShape": {}}}}}, {"name": "StatefulPartitionedCall/Reshape_84", "op": "Const", "attr": {"value": {"tensor": {"dtype": "DT_FLOAT", "tensorShape": {"dim": [{"size": "1"}, {"size": "1"}, {"size": "384"}]}}}, "dtype": {"type": "DT_FLOAT"}}}, {"name": "StatefulPartitionedCall/jax2tf_arg_125/ReadVariableOp", "op": "Const", "attr": {"dtype": {"type": "DT_FLOAT"}, "value": {"tensor": {"dtype": "DT_FLOAT", "tensorShape": {"dim": [{"size": "384"}, {"size": "6"}, {"size": "64"}]}}}}}, {"name": "StatefulPartitionedCall/Reshape_86", "op": "Const", "attr": {"dtype": {"type": "DT_FLOAT"}, "value": {"tensor": {"dtype": "DT_FLOAT", "tensorShape": {"dim": [{"size": "1"}, {"size": "1"}, {"size": "6"}, {"size": "64"}]}}}}}, {"name": "StatefulPartitionedCall/Max_5/reduction_indices", "op": "Const", "attr": {"value": {"tensor": {"dtype": "DT_INT32", "tensorShape": {"dim": [{"size": "1"}]}}}, "dtype": {"type": "DT_INT32"}}}, {"name": "StatefulPartitionedCall/Const_821", "op": "Const", "attr": {"value": {"tensor": {"dtype": "DT_INT32", "tensorShape": {}}}, "dtype": {"type": "DT_INT32"}}}, {"name": "StatefulPartitionedCall/Const_823", "op": "Const", "attr": {"value": {"tensor": {"dtype": "DT_INT32", "tensorShape": {}}}, "dtype": {"type": "DT_INT32"}}}, {"name": "StatefulPartitionedCall/Const_825", "op": "Const", "attr": {"value": {"tensor": {"dtype": "DT_INT32", "tensorShape": {}}}, "dtype": {"type": "DT_INT32"}}}, {"name": "StatefulPartitionedCall/Const_829", "op": "Const", "attr": {"dtype": {"type": "DT_INT32"}, "value": {"tensor": {"dtype": "DT_INT32", "tensorShape": {}}}}}, {"name": "StatefulPartitionedCall/Const_831", "op": "Const", "attr": {"value": {"tensor": {"dtype": "DT_INT32", "tensorShape": {}}}, "dtype": {"type": "DT_INT32"}}}, {"name": "StatefulPartitionedCall/Const_833", "op": "Const", "attr": {"value": {"tensor": {"dtype": "DT_INT32", "tensorShape": {}}}, "dtype": {"type": "DT_INT32"}}}, {"name": "StatefulPartitionedCall/Sum_27/reduction_indices", "op": "Const", "attr": {"dtype": {"type": "DT_INT32"}, "value": {"tensor": {"dtype": "DT_INT32", "tensorShape": {"dim": [{"size": "1"}]}}}}}, {"name": "StatefulPartitionedCall/Const_837", "op": "Const", "attr": {"dtype": {"type": "DT_INT32"}, "value": {"tensor": {"dtype": "DT_INT32", "tensorShape": {}}}}}, {"name": "StatefulPartitionedCall/Const_839", "op": "Const", "attr": {"value": {"tensor": {"dtype": "DT_INT32", "tensorShape": {}}}, "dtype": {"type": "DT_INT32"}}}, {"name": "StatefulPartitionedCall/Const_841", "op": "Const", "attr": {"value": {"tensor": {"dtype": "DT_INT32", "tensorShape": {}}}, "dtype": {"type": "DT_INT32"}}}, {"name": "StatefulPartitionedCall/Const_845", "op": "Const", "attr": {"dtype": {"type": "DT_INT32"}, "value": {"tensor": {"dtype": "DT_INT32", "tensorShape": {}}}}}, {"name": "StatefulPartitionedCall/Const_847", "op": "Const", "attr": {"dtype": {"type": "DT_INT32"}, "value": {"tensor": {"dtype": "DT_INT32", "tensorShape": {}}}}}, {"name": "StatefulPartitionedCall/Const_849", "op": "Const", "attr": {"value": {"tensor": {"dtype": "DT_INT32", "tensorShape": {}}}, "dtype": {"type": "DT_INT32"}}}, {"name": "StatefulPartitionedCall/transpose_82/perm", "op": "Const", "attr": {"value": {"tensor": {"dtype": "DT_INT32", "tensorShape": {"dim": [{"size": "4"}]}}}, "dtype": {"type": "DT_INT32"}}}, {"name": "StatefulPartitionedCall/jax2tf_arg_127/ReadVariableOp", "op": "Const", "attr": {"dtype": {"type": "DT_FLOAT"}, "value": {"tensor": {"dtype": "DT_FLOAT", "tensorShape": {"dim": [{"size": "6"}, {"size": "64"}, {"size": "384"}]}}}}}, {"name": "StatefulPartitionedCall/Sum_28/reduction_indices", "op": "Const", "attr": {"value": {"tensor": {"dtype": "DT_INT32", "tensorShape": {"dim": [{"size": "1"}]}}}, "dtype": {"type": "DT_INT32"}}}, {"name": "ConstantFolding/StatefulPartitionedCall/truediv_34_recip", "op": "Const", "attr": {"dtype": {"type": "DT_FLOAT"}, "value": {"tensor": {"dtype": "DT_FLOAT", "tensorShape": {}}}}}, {"name": "StatefulPartitionedCall/Const_865", "op": "Const", "attr": {"dtype": {"type": "DT_INT32"}, "value": {"tensor": {"dtype": "DT_INT32", "tensorShape": {}}}}}, {"name": "StatefulPartitionedCall/Const_867", "op": "Const", "attr": {"dtype": {"type": "DT_INT32"}, "value": {"tensor": {"dtype": "DT_INT32", "tensorShape": {}}}}}, {"name": "StatefulPartitionedCall/Reshape_94", "op": "Const", "attr": {"value": {"tensor": {"dtype": "DT_FLOAT", "tensorShape": {"dim": [{"size": "1"}, {"size": "1"}, {"size": "384"}]}}}, "dtype": {"type": "DT_FLOAT"}}}, {"name": "StatefulPartitionedCall/jax2tf_arg_121/ReadVariableOp", "op": "Const", "attr": {"value": {"tensor": {"dtype": "DT_FLOAT", "tensorShape": {"dim": [{"size": "384"}, {"size": "1536"}]}}}, "dtype": {"type": "DT_FLOAT"}}}, {"name": "StatefulPartitionedCall/Reshape_95", "op": "Const", "attr": {"value": {"tensor": {"dtype": "DT_FLOAT", "tensorShape": {"dim": [{"size": "1"}, {"size": "1"}, {"size": "1536"}]}}}, "dtype": {"type": "DT_FLOAT"}}}, {"name": "StatefulPartitionedCall/Const_897", "op": "Const", "attr": {"value": {"tensor": {"dtype": "DT_FLOAT", "tensorShape": {}}}, "dtype": {"type": "DT_FLOAT"}}}, {"name": "StatefulPartitionedCall/Const_899", "op": "Const", "attr": {"value": {"tensor": {"dtype": "DT_FLOAT", "tensorShape": {}}}, "dtype": {"type": "DT_FLOAT"}}}, {"name": "StatefulPartitionedCall/jax2tf_arg_123/ReadVariableOp", "op": "Const", "attr": {"value": {"tensor": {"dtype": "DT_FLOAT", "tensorShape": {"dim": [{"size": "1536"}, {"size": "384"}]}}}, "dtype": {"type": "DT_FLOAT"}}}, {"name": "StatefulPartitionedCall/Sum_30/reduction_indices", "op": "Const", "attr": {"dtype": {"type": "DT_INT32"}, "value": {"tensor": {"dtype": "DT_INT32", "tensorShape": {"dim": [{"size": "1"}]}}}}}, {"name": "ConstantFolding/StatefulPartitionedCall/truediv_36_recip", "op": "Const", "attr": {"dtype": {"type": "DT_FLOAT"}, "value": {"tensor": {"dtype": "DT_FLOAT", "tensorShape": {}}}}}, {"name": "StatefulPartitionedCall/Const_917", "op": "Const", "attr": {"dtype": {"type": "DT_INT32"}, "value": {"tensor": {"dtype": "DT_INT32", "tensorShape": {}}}}}, {"name": "StatefulPartitionedCall/Const_919", "op": "Const", "attr": {"value": {"tensor": {"dtype": "DT_INT32", "tensorShape": {}}}, "dtype": {"type": "DT_INT32"}}}, {"name": "StatefulPartitionedCall/Reshape_100", "op": "Const", "attr": {"dtype": {"type": "DT_FLOAT"}, "value": {"tensor": {"dtype": "DT_FLOAT", "tensorShape": {"dim": [{"size": "1"}, {"size": "1"}, {"size": "384"}]}}}}}, {"name": "StatefulPartitionedCall/jax2tf_arg_141/ReadVariableOp", "op": "Const", "attr": {"dtype": {"type": "DT_FLOAT"}, "value": {"tensor": {"dtype": "DT_FLOAT", "tensorShape": {"dim": [{"size": "384"}, {"size": "6"}, {"size": "64"}]}}}}}, {"name": "StatefulPartitionedCall/Reshape_102", "op": "Const", "attr": {"value": {"tensor": {"dtype": "DT_FLOAT", "tensorShape": {"dim": [{"size": "1"}, {"size": "1"}, {"size": "6"}, {"size": "64"}]}}}, "dtype": {"type": "DT_FLOAT"}}}, {"name": "StatefulPartitionedCall/Max_6/reduction_indices", "op": "Const", "attr": {"value": {"tensor": {"dtype": "DT_INT32", "tensorShape": {"dim": [{"size": "1"}]}}}, "dtype": {"type": "DT_INT32"}}}, {"name": "StatefulPartitionedCall/Const_969", "op": "Const", "attr": {"value": {"tensor": {"dtype": "DT_INT32", "tensorShape": {}}}, "dtype": {"type": "DT_INT32"}}}, {"name": "StatefulPartitionedCall/Const_971", "op": "Const", "attr": {"dtype": {"type": "DT_INT32"}, "value": {"tensor": {"dtype": "DT_INT32", "tensorShape": {}}}}}, {"name": "StatefulPartitionedCall/Const_973", "op": "Const", "attr": {"dtype": {"type": "DT_INT32"}, "value": {"tensor": {"dtype": "DT_INT32", "tensorShape": {}}}}}, {"name": "StatefulPartitionedCall/Const_977", "op": "Const", "attr": {"dtype": {"type": "DT_INT32"}, "value": {"tensor": {"dtype": "DT_INT32", "tensorShape": {}}}}}, {"name": "StatefulPartitionedCall/Const_979", "op": "Const", "attr": {"dtype": {"type": "DT_INT32"}, "value": {"tensor": {"dtype": "DT_INT32", "tensorShape": {}}}}}, {"name": "StatefulPartitionedCall/Const_981", "op": "Const", "attr": {"value": {"tensor": {"dtype": "DT_INT32", "tensorShape": {}}}, "dtype": {"type": "DT_INT32"}}}, {"name": "StatefulPartitionedCall/Sum_32/reduction_indices", "op": "Const", "attr": {"value": {"tensor": {"dtype": "DT_INT32", "tensorShape": {"dim": [{"size": "1"}]}}}, "dtype": {"type": "DT_INT32"}}}, {"name": "StatefulPartitionedCall/Const_985", "op": "Const", "attr": {"value": {"tensor": {"dtype": "DT_INT32", "tensorShape": {}}}, "dtype": {"type": "DT_INT32"}}}, {"name": "StatefulPartitionedCall/Const_987", "op": "Const", "attr": {"dtype": {"type": "DT_INT32"}, "value": {"tensor": {"dtype": "DT_INT32", "tensorShape": {}}}}}, {"name": "StatefulPartitionedCall/Const_989", "op": "Const", "attr": {"value": {"tensor": {"dtype": "DT_INT32", "tensorShape": {}}}, "dtype": {"type": "DT_INT32"}}}, {"name": "StatefulPartitionedCall/Const_993", "op": "Const", "attr": {"dtype": {"type": "DT_INT32"}, "value": {"tensor": {"dtype": "DT_INT32", "tensorShape": {}}}}}, {"name": "StatefulPartitionedCall/Const_995", "op": "Const", "attr": {"dtype": {"type": "DT_INT32"}, "value": {"tensor": {"dtype": "DT_INT32", "tensorShape": {}}}}}, {"name": "StatefulPartitionedCall/Const_997", "op": "Const", "attr": {"dtype": {"type": "DT_INT32"}, "value": {"tensor": {"dtype": "DT_INT32", "tensorShape": {}}}}}, {"name": "StatefulPartitionedCall/transpose_97/perm", "op": "Const", "attr": {"value": {"tensor": {"dtype": "DT_INT32", "tensorShape": {"dim": [{"size": "4"}]}}}, "dtype": {"type": "DT_INT32"}}}, {"name": "StatefulPartitionedCall/jax2tf_arg_143/ReadVariableOp", "op": "Const", "attr": {"value": {"tensor": {"dtype": "DT_FLOAT", "tensorShape": {"dim": [{"size": "6"}, {"size": "64"}, {"size": "384"}]}}}, "dtype": {"type": "DT_FLOAT"}}}, {"name": "StatefulPartitionedCall/Sum_33/reduction_indices", "op": "Const", "attr": {"value": {"tensor": {"dtype": "DT_INT32", "tensorShape": {"dim": [{"size": "1"}]}}}, "dtype": {"type": "DT_INT32"}}}, {"name": "ConstantFolding/StatefulPartitionedCall/truediv_40_recip", "op": "Const", "attr": {"dtype": {"type": "DT_FLOAT"}, "value": {"tensor": {"dtype": "DT_FLOAT", "tensorShape": {}}}}}, {"name": "StatefulPartitionedCall/Const_1013", "op": "Const", "attr": {"value": {"tensor": {"dtype": "DT_INT32", "tensorShape": {}}}, "dtype": {"type": "DT_INT32"}}}, {"name": "StatefulPartitionedCall/Const_1015", "op": "Const", "attr": {"value": {"tensor": {"dtype": "DT_INT32", "tensorShape": {}}}, "dtype": {"type": "DT_INT32"}}}, {"name": "StatefulPartitionedCall/Reshape_110", "op": "Const", "attr": {"value": {"tensor": {"dtype": "DT_FLOAT", "tensorShape": {"dim": [{"size": "1"}, {"size": "1"}, {"size": "384"}]}}}, "dtype": {"type": "DT_FLOAT"}}}, {"name": "StatefulPartitionedCall/jax2tf_arg_137/ReadVariableOp", "op": "Const", "attr": {"dtype": {"type": "DT_FLOAT"}, "value": {"tensor": {"dtype": "DT_FLOAT", "tensorShape": {"dim": [{"size": "384"}, {"size": "1536"}]}}}}}, {"name": "StatefulPartitionedCall/Reshape_111", "op": "Const", "attr": {"dtype": {"type": "DT_FLOAT"}, "value": {"tensor": {"dtype": "DT_FLOAT", "tensorShape": {"dim": [{"size": "1"}, {"size": "1"}, {"size": "1536"}]}}}}}, {"name": "StatefulPartitionedCall/Const_1045", "op": "Const", "attr": {"dtype": {"type": "DT_FLOAT"}, "value": {"tensor": {"dtype": "DT_FLOAT", "tensorShape": {}}}}}, {"name": "StatefulPartitionedCall/Const_1047", "op": "Const", "attr": {"dtype": {"type": "DT_FLOAT"}, "value": {"tensor": {"dtype": "DT_FLOAT", "tensorShape": {}}}}}, {"name": "StatefulPartitionedCall/jax2tf_arg_139/ReadVariableOp", "op": "Const", "attr": {"dtype": {"type": "DT_FLOAT"}, "value": {"tensor": {"dtype": "DT_FLOAT", "tensorShape": {"dim": [{"size": "1536"}, {"size": "384"}]}}}}}, {"name": "StatefulPartitionedCall/Sum_35/reduction_indices", "op": "Const", "attr": {"value": {"tensor": {"dtype": "DT_INT32", "tensorShape": {"dim": [{"size": "1"}]}}}, "dtype": {"type": "DT_INT32"}}}, {"name": "ConstantFolding/StatefulPartitionedCall/truediv_42_recip", "op": "Const", "attr": {"value": {"tensor": {"dtype": "DT_FLOAT", "tensorShape": {}}}, "dtype": {"type": "DT_FLOAT"}}}, {"name": "StatefulPartitionedCall/Const_1065", "op": "Const", "attr": {"dtype": {"type": "DT_INT32"}, "value": {"tensor": {"dtype": "DT_INT32", "tensorShape": {}}}}}, {"name": "StatefulPartitionedCall/Const_1067", "op": "Const", "attr": {"dtype": {"type": "DT_INT32"}, "value": {"tensor": {"dtype": "DT_INT32", "tensorShape": {}}}}}, {"name": "StatefulPartitionedCall/Reshape_116", "op": "Const", "attr": {"dtype": {"type": "DT_FLOAT"}, "value": {"tensor": {"dtype": "DT_FLOAT", "tensorShape": {"dim": [{"size": "1"}, {"size": "1"}, {"size": "384"}]}}}}}, {"name": "StatefulPartitionedCall/jax2tf_arg_157/ReadVariableOp", "op": "Const", "attr": {"value": {"tensor": {"dtype": "DT_FLOAT", "tensorShape": {"dim": [{"size": "384"}, {"size": "6"}, {"size": "64"}]}}}, "dtype": {"type": "DT_FLOAT"}}}, {"name": "StatefulPartitionedCall/Reshape_118", "op": "Const", "attr": {"value": {"tensor": {"dtype": "DT_FLOAT", "tensorShape": {"dim": [{"size": "1"}, {"size": "1"}, {"size": "6"}, {"size": "64"}]}}}, "dtype": {"type": "DT_FLOAT"}}}, {"name": "StatefulPartitionedCall/Max_7/reduction_indices", "op": "Const", "attr": {"dtype": {"type": "DT_INT32"}, "value": {"tensor": {"dtype": "DT_INT32", "tensorShape": {"dim": [{"size": "1"}]}}}}}, {"name": "StatefulPartitionedCall/Const_1117", "op": "Const", "attr": {"dtype": {"type": "DT_INT32"}, "value": {"tensor": {"dtype": "DT_INT32", "tensorShape": {}}}}}, {"name": "StatefulPartitionedCall/Const_1119", "op": "Const", "attr": {"value": {"tensor": {"dtype": "DT_INT32", "tensorShape": {}}}, "dtype": {"type": "DT_INT32"}}}, {"name": "StatefulPartitionedCall/Const_1121", "op": "Const", "attr": {"value": {"tensor": {"dtype": "DT_INT32", "tensorShape": {}}}, "dtype": {"type": "DT_INT32"}}}, {"name": "StatefulPartitionedCall/Const_1125", "op": "Const", "attr": {"value": {"tensor": {"dtype": "DT_INT32", "tensorShape": {}}}, "dtype": {"type": "DT_INT32"}}}, {"name": "StatefulPartitionedCall/Const_1127", "op": "Const", "attr": {"dtype": {"type": "DT_INT32"}, "value": {"tensor": {"dtype": "DT_INT32", "tensorShape": {}}}}}, {"name": "StatefulPartitionedCall/Const_1129", "op": "Const", "attr": {"value": {"tensor": {"dtype": "DT_INT32", "tensorShape": {}}}, "dtype": {"type": "DT_INT32"}}}, {"name": "StatefulPartitionedCall/Sum_37/reduction_indices", "op": "Const", "attr": {"value": {"tensor": {"dtype": "DT_INT32", "tensorShape": {"dim": [{"size": "1"}]}}}, "dtype": {"type": "DT_INT32"}}}, {"name": "StatefulPartitionedCall/Const_1133", "op": "Const", "attr": {"dtype": {"type": "DT_INT32"}, "value": {"tensor": {"dtype": "DT_INT32", "tensorShape": {}}}}}, {"name": "StatefulPartitionedCall/Const_1135", "op": "Const", "attr": {"dtype": {"type": "DT_INT32"}, "value": {"tensor": {"dtype": "DT_INT32", "tensorShape": {}}}}}, {"name": "StatefulPartitionedCall/Const_1137", "op": "Const", "attr": {"value": {"tensor": {"dtype": "DT_INT32", "tensorShape": {}}}, "dtype": {"type": "DT_INT32"}}}, {"name": "StatefulPartitionedCall/Const_1141", "op": "Const", "attr": {"dtype": {"type": "DT_INT32"}, "value": {"tensor": {"dtype": "DT_INT32", "tensorShape": {}}}}}, {"name": "StatefulPartitionedCall/Const_1143", "op": "Const", "attr": {"value": {"tensor": {"dtype": "DT_INT32", "tensorShape": {}}}, "dtype": {"type": "DT_INT32"}}}, {"name": "StatefulPartitionedCall/Const_1145", "op": "Const", "attr": {"value": {"tensor": {"dtype": "DT_INT32", "tensorShape": {}}}, "dtype": {"type": "DT_INT32"}}}, {"name": "StatefulPartitionedCall/transpose_112/perm", "op": "Const", "attr": {"dtype": {"type": "DT_INT32"}, "value": {"tensor": {"dtype": "DT_INT32", "tensorShape": {"dim": [{"size": "4"}]}}}}}, {"name": "StatefulPartitionedCall/jax2tf_arg_159/ReadVariableOp", "op": "Const", "attr": {"value": {"tensor": {"dtype": "DT_FLOAT", "tensorShape": {"dim": [{"size": "6"}, {"size": "64"}, {"size": "384"}]}}}, "dtype": {"type": "DT_FLOAT"}}}, {"name": "StatefulPartitionedCall/Sum_38/reduction_indices", "op": "Const", "attr": {"dtype": {"type": "DT_INT32"}, "value": {"tensor": {"dtype": "DT_INT32", "tensorShape": {"dim": [{"size": "1"}]}}}}}, {"name": "ConstantFolding/StatefulPartitionedCall/truediv_46_recip", "op": "Const", "attr": {"dtype": {"type": "DT_FLOAT"}, "value": {"tensor": {"dtype": "DT_FLOAT", "tensorShape": {}}}}}, {"name": "StatefulPartitionedCall/Const_1161", "op": "Const", "attr": {"dtype": {"type": "DT_INT32"}, "value": {"tensor": {"dtype": "DT_INT32", "tensorShape": {}}}}}, {"name": "StatefulPartitionedCall/Const_1163", "op": "Const", "attr": {"value": {"tensor": {"dtype": "DT_INT32", "tensorShape": {}}}, "dtype": {"type": "DT_INT32"}}}, {"name": "StatefulPartitionedCall/Reshape_126", "op": "Const", "attr": {"value": {"tensor": {"dtype": "DT_FLOAT", "tensorShape": {"dim": [{"size": "1"}, {"size": "1"}, {"size": "384"}]}}}, "dtype": {"type": "DT_FLOAT"}}}, {"name": "StatefulPartitionedCall/jax2tf_arg_153/ReadVariableOp", "op": "Const", "attr": {"dtype": {"type": "DT_FLOAT"}, "value": {"tensor": {"dtype": "DT_FLOAT", "tensorShape": {"dim": [{"size": "384"}, {"size": "1536"}]}}}}}, {"name": "StatefulPartitionedCall/Reshape_127", "op": "Const", "attr": {"value": {"tensor": {"dtype": "DT_FLOAT", "tensorShape": {"dim": [{"size": "1"}, {"size": "1"}, {"size": "1536"}]}}}, "dtype": {"type": "DT_FLOAT"}}}, {"name": "StatefulPartitionedCall/Const_1193", "op": "Const", "attr": {"value": {"tensor": {"dtype": "DT_FLOAT", "tensorShape": {}}}, "dtype": {"type": "DT_FLOAT"}}}, {"name": "StatefulPartitionedCall/Const_1195", "op": "Const", "attr": {"dtype": {"type": "DT_FLOAT"}, "value": {"tensor": {"dtype": "DT_FLOAT", "tensorShape": {}}}}}, {"name": "StatefulPartitionedCall/jax2tf_arg_155/ReadVariableOp", "op": "Const", "attr": {"value": {"tensor": {"dtype": "DT_FLOAT", "tensorShape": {"dim": [{"size": "1536"}, {"size": "384"}]}}}, "dtype": {"type": "DT_FLOAT"}}}, {"name": "StatefulPartitionedCall/Sum_40/reduction_indices", "op": "Const", "attr": {"dtype": {"type": "DT_INT32"}, "value": {"tensor": {"dtype": "DT_INT32", "tensorShape": {"dim": [{"size": "1"}]}}}}}, {"name": "ConstantFolding/StatefulPartitionedCall/truediv_48_recip", "op": "Const", "attr": {"dtype": {"type": "DT_FLOAT"}, "value": {"tensor": {"dtype": "DT_FLOAT", "tensorShape": {}}}}}, {"name": "StatefulPartitionedCall/Const_1213", "op": "Const", "attr": {"dtype": {"type": "DT_INT32"}, "value": {"tensor": {"dtype": "DT_INT32", "tensorShape": {}}}}}, {"name": "StatefulPartitionedCall/Const_1215", "op": "Const", "attr": {"value": {"tensor": {"dtype": "DT_INT32", "tensorShape": {}}}, "dtype": {"type": "DT_INT32"}}}, {"name": "StatefulPartitionedCall/Reshape_132", "op": "Const", "attr": {"dtype": {"type": "DT_FLOAT"}, "value": {"tensor": {"dtype": "DT_FLOAT", "tensorShape": {"dim": [{"size": "1"}, {"size": "1"}, {"size": "384"}]}}}}}, {"name": "StatefulPartitionedCall/jax2tf_arg_173/ReadVariableOp", "op": "Const", "attr": {"dtype": {"type": "DT_FLOAT"}, "value": {"tensor": {"dtype": "DT_FLOAT", "tensorShape": {"dim": [{"size": "384"}, {"size": "6"}, {"size": "64"}]}}}}}, {"name": "StatefulPartitionedCall/Reshape_134", "op": "Const", "attr": {"value": {"tensor": {"dtype": "DT_FLOAT", "tensorShape": {"dim": [{"size": "1"}, {"size": "1"}, {"size": "6"}, {"size": "64"}]}}}, "dtype": {"type": "DT_FLOAT"}}}, {"name": "StatefulPartitionedCall/Max_8/reduction_indices", "op": "Const", "attr": {"dtype": {"type": "DT_INT32"}, "value": {"tensor": {"dtype": "DT_INT32", "tensorShape": {"dim": [{"size": "1"}]}}}}}, {"name": "StatefulPartitionedCall/Const_1265", "op": "Const", "attr": {"value": {"tensor": {"dtype": "DT_INT32", "tensorShape": {}}}, "dtype": {"type": "DT_INT32"}}}, {"name": "StatefulPartitionedCall/Const_1267", "op": "Const", "attr": {"value": {"tensor": {"dtype": "DT_INT32", "tensorShape": {}}}, "dtype": {"type": "DT_INT32"}}}, {"name": "StatefulPartitionedCall/Const_1269", "op": "Const", "attr": {"value": {"tensor": {"dtype": "DT_INT32", "tensorShape": {}}}, "dtype": {"type": "DT_INT32"}}}, {"name": "StatefulPartitionedCall/Const_1273", "op": "Const", "attr": {"dtype": {"type": "DT_INT32"}, "value": {"tensor": {"dtype": "DT_INT32", "tensorShape": {}}}}}, {"name": "StatefulPartitionedCall/Const_1275", "op": "Const", "attr": {"value": {"tensor": {"dtype": "DT_INT32", "tensorShape": {}}}, "dtype": {"type": "DT_INT32"}}}, {"name": "StatefulPartitionedCall/Const_1277", "op": "Const", "attr": {"value": {"tensor": {"dtype": "DT_INT32", "tensorShape": {}}}, "dtype": {"type": "DT_INT32"}}}, {"name": "StatefulPartitionedCall/Sum_42/reduction_indices", "op": "Const", "attr": {"value": {"tensor": {"dtype": "DT_INT32", "tensorShape": {"dim": [{"size": "1"}]}}}, "dtype": {"type": "DT_INT32"}}}, {"name": "StatefulPartitionedCall/Const_1281", "op": "Const", "attr": {"dtype": {"type": "DT_INT32"}, "value": {"tensor": {"dtype": "DT_INT32", "tensorShape": {}}}}}, {"name": "StatefulPartitionedCall/Const_1283", "op": "Const", "attr": {"dtype": {"type": "DT_INT32"}, "value": {"tensor": {"dtype": "DT_INT32", "tensorShape": {}}}}}, {"name": "StatefulPartitionedCall/Const_1285", "op": "Const", "attr": {"value": {"tensor": {"dtype": "DT_INT32", "tensorShape": {}}}, "dtype": {"type": "DT_INT32"}}}, {"name": "StatefulPartitionedCall/Const_1289", "op": "Const", "attr": {"dtype": {"type": "DT_INT32"}, "value": {"tensor": {"dtype": "DT_INT32", "tensorShape": {}}}}}, {"name": "StatefulPartitionedCall/Const_1291", "op": "Const", "attr": {"value": {"tensor": {"dtype": "DT_INT32", "tensorShape": {}}}, "dtype": {"type": "DT_INT32"}}}, {"name": "StatefulPartitionedCall/Const_1293", "op": "Const", "attr": {"dtype": {"type": "DT_INT32"}, "value": {"tensor": {"dtype": "DT_INT32", "tensorShape": {}}}}}, {"name": "StatefulPartitionedCall/transpose_127/perm", "op": "Const", "attr": {"dtype": {"type": "DT_INT32"}, "value": {"tensor": {"dtype": "DT_INT32", "tensorShape": {"dim": [{"size": "4"}]}}}}}, {"name": "StatefulPartitionedCall/jax2tf_arg_175/ReadVariableOp", "op": "Const", "attr": {"dtype": {"type": "DT_FLOAT"}, "value": {"tensor": {"dtype": "DT_FLOAT", "tensorShape": {"dim": [{"size": "6"}, {"size": "64"}, {"size": "384"}]}}}}}, {"name": "StatefulPartitionedCall/Sum_43/reduction_indices", "op": "Const", "attr": {"value": {"tensor": {"dtype": "DT_INT32", "tensorShape": {"dim": [{"size": "1"}]}}}, "dtype": {"type": "DT_INT32"}}}, {"name": "ConstantFolding/StatefulPartitionedCall/truediv_52_recip", "op": "Const", "attr": {"dtype": {"type": "DT_FLOAT"}, "value": {"tensor": {"dtype": "DT_FLOAT", "tensorShape": {}}}}}, {"name": "StatefulPartitionedCall/Const_1309", "op": "Const", "attr": {"value": {"tensor": {"dtype": "DT_INT32", "tensorShape": {}}}, "dtype": {"type": "DT_INT32"}}}, {"name": "StatefulPartitionedCall/Const_1311", "op": "Const", "attr": {"value": {"tensor": {"dtype": "DT_INT32", "tensorShape": {}}}, "dtype": {"type": "DT_INT32"}}}, {"name": "StatefulPartitionedCall/Reshape_142", "op": "Const", "attr": {"dtype": {"type": "DT_FLOAT"}, "value": {"tensor": {"dtype": "DT_FLOAT", "tensorShape": {"dim": [{"size": "1"}, {"size": "1"}, {"size": "384"}]}}}}}, {"name": "StatefulPartitionedCall/jax2tf_arg_169/ReadVariableOp", "op": "Const", "attr": {"value": {"tensor": {"dtype": "DT_FLOAT", "tensorShape": {"dim": [{"size": "384"}, {"size": "1536"}]}}}, "dtype": {"type": "DT_FLOAT"}}}, {"name": "StatefulPartitionedCall/Reshape_143", "op": "Const", "attr": {"value": {"tensor": {"dtype": "DT_FLOAT", "tensorShape": {"dim": [{"size": "1"}, {"size": "1"}, {"size": "1536"}]}}}, "dtype": {"type": "DT_FLOAT"}}}, {"name": "StatefulPartitionedCall/Const_1341", "op": "Const", "attr": {"dtype": {"type": "DT_FLOAT"}, "value": {"tensor": {"dtype": "DT_FLOAT", "tensorShape": {}}}}}, {"name": "StatefulPartitionedCall/Const_1343", "op": "Const", "attr": {"value": {"tensor": {"dtype": "DT_FLOAT", "tensorShape": {}}}, "dtype": {"type": "DT_FLOAT"}}}, {"name": "StatefulPartitionedCall/jax2tf_arg_171/ReadVariableOp", "op": "Const", "attr": {"value": {"tensor": {"dtype": "DT_FLOAT", "tensorShape": {"dim": [{"size": "1536"}, {"size": "384"}]}}}, "dtype": {"type": "DT_FLOAT"}}}, {"name": "StatefulPartitionedCall/Sum_45/reduction_indices", "op": "Const", "attr": {"value": {"tensor": {"dtype": "DT_INT32", "tensorShape": {"dim": [{"size": "1"}]}}}, "dtype": {"type": "DT_INT32"}}}, {"name": "ConstantFolding/StatefulPartitionedCall/truediv_54_recip", "op": "Const", "attr": {"value": {"tensor": {"dtype": "DT_FLOAT", "tensorShape": {}}}, "dtype": {"type": "DT_FLOAT"}}}, {"name": "StatefulPartitionedCall/Const_1361", "op": "Const", "attr": {"dtype": {"type": "DT_INT32"}, "value": {"tensor": {"dtype": "DT_INT32", "tensorShape": {}}}}}, {"name": "StatefulPartitionedCall/Const_1363", "op": "Const", "attr": {"dtype": {"type": "DT_INT32"}, "value": {"tensor": {"dtype": "DT_INT32", "tensorShape": {}}}}}, {"name": "StatefulPartitionedCall/Reshape_148", "op": "Const", "attr": {"value": {"tensor": {"dtype": "DT_FLOAT", "tensorShape": {"dim": [{"size": "1"}, {"size": "1"}, {"size": "384"}]}}}, "dtype": {"type": "DT_FLOAT"}}}, {"name": "StatefulPartitionedCall/jax2tf_arg_189/ReadVariableOp", "op": "Const", "attr": {"dtype": {"type": "DT_FLOAT"}, "value": {"tensor": {"dtype": "DT_FLOAT", "tensorShape": {"dim": [{"size": "384"}, {"size": "6"}, {"size": "64"}]}}}}}, {"name": "StatefulPartitionedCall/Reshape_150", "op": "Const", "attr": {"dtype": {"type": "DT_FLOAT"}, "value": {"tensor": {"dtype": "DT_FLOAT", "tensorShape": {"dim": [{"size": "1"}, {"size": "1"}, {"size": "6"}, {"size": "64"}]}}}}}, {"name": "StatefulPartitionedCall/Max_9/reduction_indices", "op": "Const", "attr": {"value": {"tensor": {"dtype": "DT_INT32", "tensorShape": {"dim": [{"size": "1"}]}}}, "dtype": {"type": "DT_INT32"}}}, {"name": "StatefulPartitionedCall/Const_1413", "op": "Const", "attr": {"value": {"tensor": {"dtype": "DT_INT32", "tensorShape": {}}}, "dtype": {"type": "DT_INT32"}}}, {"name": "StatefulPartitionedCall/Const_1415", "op": "Const", "attr": {"value": {"tensor": {"dtype": "DT_INT32", "tensorShape": {}}}, "dtype": {"type": "DT_INT32"}}}, {"name": "StatefulPartitionedCall/Const_1417", "op": "Const", "attr": {"value": {"tensor": {"dtype": "DT_INT32", "tensorShape": {}}}, "dtype": {"type": "DT_INT32"}}}, {"name": "StatefulPartitionedCall/Const_1421", "op": "Const", "attr": {"value": {"tensor": {"dtype": "DT_INT32", "tensorShape": {}}}, "dtype": {"type": "DT_INT32"}}}, {"name": "StatefulPartitionedCall/Const_1423", "op": "Const", "attr": {"dtype": {"type": "DT_INT32"}, "value": {"tensor": {"dtype": "DT_INT32", "tensorShape": {}}}}}, {"name": "StatefulPartitionedCall/Const_1425", "op": "Const", "attr": {"value": {"tensor": {"dtype": "DT_INT32", "tensorShape": {}}}, "dtype": {"type": "DT_INT32"}}}, {"name": "StatefulPartitionedCall/Sum_47/reduction_indices", "op": "Const", "attr": {"value": {"tensor": {"dtype": "DT_INT32", "tensorShape": {"dim": [{"size": "1"}]}}}, "dtype": {"type": "DT_INT32"}}}, {"name": "StatefulPartitionedCall/Const_1429", "op": "Const", "attr": {"dtype": {"type": "DT_INT32"}, "value": {"tensor": {"dtype": "DT_INT32", "tensorShape": {}}}}}, {"name": "StatefulPartitionedCall/Const_1431", "op": "Const", "attr": {"dtype": {"type": "DT_INT32"}, "value": {"tensor": {"dtype": "DT_INT32", "tensorShape": {}}}}}, {"name": "StatefulPartitionedCall/Const_1433", "op": "Const", "attr": {"dtype": {"type": "DT_INT32"}, "value": {"tensor": {"dtype": "DT_INT32", "tensorShape": {}}}}}, {"name": "StatefulPartitionedCall/Const_1437", "op": "Const", "attr": {"value": {"tensor": {"dtype": "DT_INT32", "tensorShape": {}}}, "dtype": {"type": "DT_INT32"}}}, {"name": "StatefulPartitionedCall/Const_1439", "op": "Const", "attr": {"value": {"tensor": {"dtype": "DT_INT32", "tensorShape": {}}}, "dtype": {"type": "DT_INT32"}}}, {"name": "StatefulPartitionedCall/Const_1441", "op": "Const", "attr": {"value": {"tensor": {"dtype": "DT_INT32", "tensorShape": {}}}, "dtype": {"type": "DT_INT32"}}}, {"name": "StatefulPartitionedCall/transpose_142/perm", "op": "Const", "attr": {"dtype": {"type": "DT_INT32"}, "value": {"tensor": {"dtype": "DT_INT32", "tensorShape": {"dim": [{"size": "4"}]}}}}}, {"name": "StatefulPartitionedCall/jax2tf_arg_191/ReadVariableOp", "op": "Const", "attr": {"dtype": {"type": "DT_FLOAT"}, "value": {"tensor": {"dtype": "DT_FLOAT", "tensorShape": {"dim": [{"size": "6"}, {"size": "64"}, {"size": "384"}]}}}}}, {"name": "StatefulPartitionedCall/Sum_48/reduction_indices", "op": "Const", "attr": {"dtype": {"type": "DT_INT32"}, "value": {"tensor": {"dtype": "DT_INT32", "tensorShape": {"dim": [{"size": "1"}]}}}}}, {"name": "ConstantFolding/StatefulPartitionedCall/truediv_58_recip", "op": "Const", "attr": {"dtype": {"type": "DT_FLOAT"}, "value": {"tensor": {"dtype": "DT_FLOAT", "tensorShape": {}}}}}, {"name": "StatefulPartitionedCall/Const_1457", "op": "Const", "attr": {"value": {"tensor": {"dtype": "DT_INT32", "tensorShape": {}}}, "dtype": {"type": "DT_INT32"}}}, {"name": "StatefulPartitionedCall/Const_1459", "op": "Const", "attr": {"value": {"tensor": {"dtype": "DT_INT32", "tensorShape": {}}}, "dtype": {"type": "DT_INT32"}}}, {"name": "StatefulPartitionedCall/Reshape_158", "op": "Const", "attr": {"dtype": {"type": "DT_FLOAT"}, "value": {"tensor": {"dtype": "DT_FLOAT", "tensorShape": {"dim": [{"size": "1"}, {"size": "1"}, {"size": "384"}]}}}}}, {"name": "StatefulPartitionedCall/jax2tf_arg_185/ReadVariableOp", "op": "Const", "attr": {"dtype": {"type": "DT_FLOAT"}, "value": {"tensor": {"dtype": "DT_FLOAT", "tensorShape": {"dim": [{"size": "384"}, {"size": "1536"}]}}}}}, {"name": "StatefulPartitionedCall/Reshape_159", "op": "Const", "attr": {"value": {"tensor": {"dtype": "DT_FLOAT", "tensorShape": {"dim": [{"size": "1"}, {"size": "1"}, {"size": "1536"}]}}}, "dtype": {"type": "DT_FLOAT"}}}, {"name": "StatefulPartitionedCall/Const_1489", "op": "Const", "attr": {"dtype": {"type": "DT_FLOAT"}, "value": {"tensor": {"dtype": "DT_FLOAT", "tensorShape": {}}}}}, {"name": "StatefulPartitionedCall/Const_1491", "op": "Const", "attr": {"value": {"tensor": {"dtype": "DT_FLOAT", "tensorShape": {}}}, "dtype": {"type": "DT_FLOAT"}}}, {"name": "StatefulPartitionedCall/jax2tf_arg_187/ReadVariableOp", "op": "Const", "attr": {"dtype": {"type": "DT_FLOAT"}, "value": {"tensor": {"dtype": "DT_FLOAT", "tensorShape": {"dim": [{"size": "1536"}, {"size": "384"}]}}}}}, {"name": "StatefulPartitionedCall/Sum_50/reduction_indices", "op": "Const", "attr": {"dtype": {"type": "DT_INT32"}, "value": {"tensor": {"dtype": "DT_INT32", "tensorShape": {"dim": [{"size": "1"}]}}}}}, {"name": "ConstantFolding/StatefulPartitionedCall/truediv_60_recip", "op": "Const", "attr": {"dtype": {"type": "DT_FLOAT"}, "value": {"tensor": {"dtype": "DT_FLOAT", "tensorShape": {}}}}}, {"name": "StatefulPartitionedCall/Const_1509", "op": "Const", "attr": {"value": {"tensor": {"dtype": "DT_INT32", "tensorShape": {}}}, "dtype": {"type": "DT_INT32"}}}, {"name": "StatefulPartitionedCall/Const_1511", "op": "Const", "attr": {"dtype": {"type": "DT_INT32"}, "value": {"tensor": {"dtype": "DT_INT32", "tensorShape": {}}}}}, {"name": "StatefulPartitionedCall/Reshape_164", "op": "Const", "attr": {"dtype": {"type": "DT_FLOAT"}, "value": {"tensor": {"dtype": "DT_FLOAT", "tensorShape": {"dim": [{"size": "1"}, {"size": "1"}, {"size": "384"}]}}}}}, {"name": "StatefulPartitionedCall/jax2tf_arg_45/ReadVariableOp", "op": "Const", "attr": {"dtype": {"type": "DT_FLOAT"}, "value": {"tensor": {"dtype": "DT_FLOAT", "tensorShape": {"dim": [{"size": "384"}, {"size": "6"}, {"size": "64"}]}}}}}, {"name": "StatefulPartitionedCall/Reshape_166", "op": "Const", "attr": {"dtype": {"type": "DT_FLOAT"}, "value": {"tensor": {"dtype": "DT_FLOAT", "tensorShape": {"dim": [{"size": "1"}, {"size": "1"}, {"size": "6"}, {"size": "64"}]}}}}}, {"name": "StatefulPartitionedCall/Max_10/reduction_indices", "op": "Const", "attr": {"value": {"tensor": {"dtype": "DT_INT32", "tensorShape": {"dim": [{"size": "1"}]}}}, "dtype": {"type": "DT_INT32"}}}, {"name": "StatefulPartitionedCall/Const_1561", "op": "Const", "attr": {"value": {"tensor": {"dtype": "DT_INT32", "tensorShape": {}}}, "dtype": {"type": "DT_INT32"}}}, {"name": "StatefulPartitionedCall/Const_1563", "op": "Const", "attr": {"value": {"tensor": {"dtype": "DT_INT32", "tensorShape": {}}}, "dtype": {"type": "DT_INT32"}}}, {"name": "StatefulPartitionedCall/Const_1565", "op": "Const", "attr": {"value": {"tensor": {"dtype": "DT_INT32", "tensorShape": {}}}, "dtype": {"type": "DT_INT32"}}}, {"name": "StatefulPartitionedCall/Const_1569", "op": "Const", "attr": {"value": {"tensor": {"dtype": "DT_INT32", "tensorShape": {}}}, "dtype": {"type": "DT_INT32"}}}, {"name": "StatefulPartitionedCall/Const_1571", "op": "Const", "attr": {"value": {"tensor": {"dtype": "DT_INT32", "tensorShape": {}}}, "dtype": {"type": "DT_INT32"}}}, {"name": "StatefulPartitionedCall/Const_1573", "op": "Const", "attr": {"dtype": {"type": "DT_INT32"}, "value": {"tensor": {"dtype": "DT_INT32", "tensorShape": {}}}}}, {"name": "StatefulPartitionedCall/Sum_52/reduction_indices", "op": "Const", "attr": {"dtype": {"type": "DT_INT32"}, "value": {"tensor": {"dtype": "DT_INT32", "tensorShape": {"dim": [{"size": "1"}]}}}}}, {"name": "StatefulPartitionedCall/Const_1577", "op": "Const", "attr": {"value": {"tensor": {"dtype": "DT_INT32", "tensorShape": {}}}, "dtype": {"type": "DT_INT32"}}}, {"name": "StatefulPartitionedCall/Const_1579", "op": "Const", "attr": {"dtype": {"type": "DT_INT32"}, "value": {"tensor": {"dtype": "DT_INT32", "tensorShape": {}}}}}, {"name": "StatefulPartitionedCall/Const_1581", "op": "Const", "attr": {"value": {"tensor": {"dtype": "DT_INT32", "tensorShape": {}}}, "dtype": {"type": "DT_INT32"}}}, {"name": "StatefulPartitionedCall/Const_1585", "op": "Const", "attr": {"value": {"tensor": {"dtype": "DT_INT32", "tensorShape": {}}}, "dtype": {"type": "DT_INT32"}}}, {"name": "StatefulPartitionedCall/Const_1587", "op": "Const", "attr": {"dtype": {"type": "DT_INT32"}, "value": {"tensor": {"dtype": "DT_INT32", "tensorShape": {}}}}}, {"name": "StatefulPartitionedCall/Const_1589", "op": "Const", "attr": {"value": {"tensor": {"dtype": "DT_INT32", "tensorShape": {}}}, "dtype": {"type": "DT_INT32"}}}, {"name": "StatefulPartitionedCall/transpose_157/perm", "op": "Const", "attr": {"value": {"tensor": {"dtype": "DT_INT32", "tensorShape": {"dim": [{"size": "4"}]}}}, "dtype": {"type": "DT_INT32"}}}, {"name": "StatefulPartitionedCall/jax2tf_arg_47/ReadVariableOp", "op": "Const", "attr": {"dtype": {"type": "DT_FLOAT"}, "value": {"tensor": {"dtype": "DT_FLOAT", "tensorShape": {"dim": [{"size": "6"}, {"size": "64"}, {"size": "384"}]}}}}}, {"name": "StatefulPartitionedCall/Sum_53/reduction_indices", "op": "Const", "attr": {"value": {"tensor": {"dtype": "DT_INT32", "tensorShape": {"dim": [{"size": "1"}]}}}, "dtype": {"type": "DT_INT32"}}}, {"name": "ConstantFolding/StatefulPartitionedCall/truediv_64_recip", "op": "Const", "attr": {"dtype": {"type": "DT_FLOAT"}, "value": {"tensor": {"dtype": "DT_FLOAT", "tensorShape": {}}}}}, {"name": "StatefulPartitionedCall/Const_1605", "op": "Const", "attr": {"value": {"tensor": {"dtype": "DT_INT32", "tensorShape": {}}}, "dtype": {"type": "DT_INT32"}}}, {"name": "StatefulPartitionedCall/Const_1607", "op": "Const", "attr": {"value": {"tensor": {"dtype": "DT_INT32", "tensorShape": {}}}, "dtype": {"type": "DT_INT32"}}}, {"name": "StatefulPartitionedCall/Reshape_174", "op": "Const", "attr": {"value": {"tensor": {"dtype": "DT_FLOAT", "tensorShape": {"dim": [{"size": "1"}, {"size": "1"}, {"size": "384"}]}}}, "dtype": {"type": "DT_FLOAT"}}}, {"name": "StatefulPartitionedCall/jax2tf_arg_41/ReadVariableOp", "op": "Const", "attr": {"dtype": {"type": "DT_FLOAT"}, "value": {"tensor": {"dtype": "DT_FLOAT", "tensorShape": {"dim": [{"size": "384"}, {"size": "1536"}]}}}}}, {"name": "StatefulPartitionedCall/Reshape_175", "op": "Const", "attr": {"value": {"tensor": {"dtype": "DT_FLOAT", "tensorShape": {"dim": [{"size": "1"}, {"size": "1"}, {"size": "1536"}]}}}, "dtype": {"type": "DT_FLOAT"}}}, {"name": "StatefulPartitionedCall/Const_1637", "op": "Const", "attr": {"value": {"tensor": {"dtype": "DT_FLOAT", "tensorShape": {}}}, "dtype": {"type": "DT_FLOAT"}}}, {"name": "StatefulPartitionedCall/Const_1639", "op": "Const", "attr": {"value": {"tensor": {"dtype": "DT_FLOAT", "tensorShape": {}}}, "dtype": {"type": "DT_FLOAT"}}}, {"name": "StatefulPartitionedCall/jax2tf_arg_43/ReadVariableOp", "op": "Const", "attr": {"dtype": {"type": "DT_FLOAT"}, "value": {"tensor": {"dtype": "DT_FLOAT", "tensorShape": {"dim": [{"size": "1536"}, {"size": "384"}]}}}}}, {"name": "StatefulPartitionedCall/Sum_55/reduction_indices", "op": "Const", "attr": {"dtype": {"type": "DT_INT32"}, "value": {"tensor": {"dtype": "DT_INT32", "tensorShape": {"dim": [{"size": "1"}]}}}}}, {"name": "ConstantFolding/StatefulPartitionedCall/truediv_66_recip", "op": "Const", "attr": {"dtype": {"type": "DT_FLOAT"}, "value": {"tensor": {"dtype": "DT_FLOAT", "tensorShape": {}}}}}, {"name": "StatefulPartitionedCall/Const_1657", "op": "Const", "attr": {"value": {"tensor": {"dtype": "DT_INT32", "tensorShape": {}}}, "dtype": {"type": "DT_INT32"}}}, {"name": "StatefulPartitionedCall/Const_1659", "op": "Const", "attr": {"value": {"tensor": {"dtype": "DT_INT32", "tensorShape": {}}}, "dtype": {"type": "DT_INT32"}}}, {"name": "StatefulPartitionedCall/Reshape_180", "op": "Const", "attr": {"value": {"tensor": {"dtype": "DT_FLOAT", "tensorShape": {"dim": [{"size": "1"}, {"size": "1"}, {"size": "384"}]}}}, "dtype": {"type": "DT_FLOAT"}}}, {"name": "StatefulPartitionedCall/jax2tf_arg_61/ReadVariableOp", "op": "Const", "attr": {"value": {"tensor": {"dtype": "DT_FLOAT", "tensorShape": {"dim": [{"size": "384"}, {"size": "6"}, {"size": "64"}]}}}, "dtype": {"type": "DT_FLOAT"}}}, {"name": "StatefulPartitionedCall/Reshape_182", "op": "Const", "attr": {"value": {"tensor": {"dtype": "DT_FLOAT", "tensorShape": {"dim": [{"size": "1"}, {"size": "1"}, {"size": "6"}, {"size": "64"}]}}}, "dtype": {"type": "DT_FLOAT"}}}, {"name": "StatefulPartitionedCall/Max_11/reduction_indices", "op": "Const", "attr": {"dtype": {"type": "DT_INT32"}, "value": {"tensor": {"dtype": "DT_INT32", "tensorShape": {"dim": [{"size": "1"}]}}}}}, {"name": "StatefulPartitionedCall/Const_1709", "op": "Const", "attr": {"value": {"tensor": {"dtype": "DT_INT32", "tensorShape": {}}}, "dtype": {"type": "DT_INT32"}}}, {"name": "StatefulPartitionedCall/Const_1711", "op": "Const", "attr": {"dtype": {"type": "DT_INT32"}, "value": {"tensor": {"dtype": "DT_INT32", "tensorShape": {}}}}}, {"name": "StatefulPartitionedCall/Const_1713", "op": "Const", "attr": {"dtype": {"type": "DT_INT32"}, "value": {"tensor": {"dtype": "DT_INT32", "tensorShape": {}}}}}, {"name": "StatefulPartitionedCall/Const_1717", "op": "Const", "attr": {"dtype": {"type": "DT_INT32"}, "value": {"tensor": {"dtype": "DT_INT32", "tensorShape": {}}}}}, {"name": "StatefulPartitionedCall/Const_1719", "op": "Const", "attr": {"dtype": {"type": "DT_INT32"}, "value": {"tensor": {"dtype": "DT_INT32", "tensorShape": {}}}}}, {"name": "StatefulPartitionedCall/Const_1721", "op": "Const", "attr": {"dtype": {"type": "DT_INT32"}, "value": {"tensor": {"dtype": "DT_INT32", "tensorShape": {}}}}}, {"name": "StatefulPartitionedCall/Sum_57/reduction_indices", "op": "Const", "attr": {"dtype": {"type": "DT_INT32"}, "value": {"tensor": {"dtype": "DT_INT32", "tensorShape": {"dim": [{"size": "1"}]}}}}}, {"name": "StatefulPartitionedCall/Const_1725", "op": "Const", "attr": {"value": {"tensor": {"dtype": "DT_INT32", "tensorShape": {}}}, "dtype": {"type": "DT_INT32"}}}, {"name": "StatefulPartitionedCall/Const_1727", "op": "Const", "attr": {"value": {"tensor": {"dtype": "DT_INT32", "tensorShape": {}}}, "dtype": {"type": "DT_INT32"}}}, {"name": "StatefulPartitionedCall/Const_1729", "op": "Const", "attr": {"value": {"tensor": {"dtype": "DT_INT32", "tensorShape": {}}}, "dtype": {"type": "DT_INT32"}}}, {"name": "StatefulPartitionedCall/Const_1733", "op": "Const", "attr": {"value": {"tensor": {"dtype": "DT_INT32", "tensorShape": {}}}, "dtype": {"type": "DT_INT32"}}}, {"name": "StatefulPartitionedCall/Const_1735", "op": "Const", "attr": {"dtype": {"type": "DT_INT32"}, "value": {"tensor": {"dtype": "DT_INT32", "tensorShape": {}}}}}, {"name": "StatefulPartitionedCall/Const_1737", "op": "Const", "attr": {"value": {"tensor": {"dtype": "DT_INT32", "tensorShape": {}}}, "dtype": {"type": "DT_INT32"}}}, {"name": "StatefulPartitionedCall/transpose_172/perm", "op": "Const", "attr": {"dtype": {"type": "DT_INT32"}, "value": {"tensor": {"dtype": "DT_INT32", "tensorShape": {"dim": [{"size": "4"}]}}}}}, {"name": "StatefulPartitionedCall/jax2tf_arg_63/ReadVariableOp", "op": "Const", "attr": {"dtype": {"type": "DT_FLOAT"}, "value": {"tensor": {"dtype": "DT_FLOAT", "tensorShape": {"dim": [{"size": "6"}, {"size": "64"}, {"size": "384"}]}}}}}, {"name": "StatefulPartitionedCall/Sum_58/reduction_indices", "op": "Const", "attr": {"value": {"tensor": {"dtype": "DT_INT32", "tensorShape": {"dim": [{"size": "1"}]}}}, "dtype": {"type": "DT_INT32"}}}, {"name": "ConstantFolding/StatefulPartitionedCall/truediv_70_recip", "op": "Const", "attr": {"dtype": {"type": "DT_FLOAT"}, "value": {"tensor": {"dtype": "DT_FLOAT", "tensorShape": {}}}}}, {"name": "StatefulPartitionedCall/Const_1753", "op": "Const", "attr": {"dtype": {"type": "DT_INT32"}, "value": {"tensor": {"dtype": "DT_INT32", "tensorShape": {}}}}}, {"name": "StatefulPartitionedCall/Const_1755", "op": "Const", "attr": {"dtype": {"type": "DT_INT32"}, "value": {"tensor": {"dtype": "DT_INT32", "tensorShape": {}}}}}, {"name": "StatefulPartitionedCall/Reshape_190", "op": "Const", "attr": {"dtype": {"type": "DT_FLOAT"}, "value": {"tensor": {"dtype": "DT_FLOAT", "tensorShape": {"dim": [{"size": "1"}, {"size": "1"}, {"size": "384"}]}}}}}, {"name": "StatefulPartitionedCall/jax2tf_arg_57/ReadVariableOp", "op": "Const", "attr": {"value": {"tensor": {"dtype": "DT_FLOAT", "tensorShape": {"dim": [{"size": "384"}, {"size": "1536"}]}}}, "dtype": {"type": "DT_FLOAT"}}}, {"name": "StatefulPartitionedCall/Reshape_191", "op": "Const", "attr": {"dtype": {"type": "DT_FLOAT"}, "value": {"tensor": {"dtype": "DT_FLOAT", "tensorShape": {"dim": [{"size": "1"}, {"size": "1"}, {"size": "1536"}]}}}}}, {"name": "StatefulPartitionedCall/Const_1785", "op": "Const", "attr": {"dtype": {"type": "DT_FLOAT"}, "value": {"tensor": {"dtype": "DT_FLOAT", "tensorShape": {}}}}}, {"name": "StatefulPartitionedCall/Const_1787", "op": "Const", "attr": {"dtype": {"type": "DT_FLOAT"}, "value": {"tensor": {"dtype": "DT_FLOAT", "tensorShape": {}}}}}, {"name": "StatefulPartitionedCall/jax2tf_arg_59/ReadVariableOp", "op": "Const", "attr": {"value": {"tensor": {"dtype": "DT_FLOAT", "tensorShape": {"dim": [{"size": "1536"}, {"size": "384"}]}}}, "dtype": {"type": "DT_FLOAT"}}}, {"name": "StatefulPartitionedCall/Sum_60/reduction_indices", "op": "Const", "attr": {"value": {"tensor": {"dtype": "DT_INT32", "tensorShape": {"dim": [{"size": "1"}]}}}, "dtype": {"type": "DT_INT32"}}}, {"name": "ConstantFolding/StatefulPartitionedCall/truediv_72_recip", "op": "Const", "attr": {"dtype": {"type": "DT_FLOAT"}, "value": {"tensor": {"dtype": "DT_FLOAT", "tensorShape": {}}}}}, {"name": "StatefulPartitionedCall/Const_1805", "op": "Const", "attr": {"dtype": {"type": "DT_INT32"}, "value": {"tensor": {"dtype": "DT_INT32", "tensorShape": {}}}}}, {"name": "StatefulPartitionedCall/Const_1807", "op": "Const", "attr": {"value": {"tensor": {"dtype": "DT_INT32", "tensorShape": {}}}, "dtype": {"type": "DT_INT32"}}}, {"name": "StatefulPartitionedCall/Reshape_196", "op": "Const", "attr": {"value": {"tensor": {"dtype": "DT_FLOAT", "tensorShape": {"dim": [{"size": "1"}, {"size": "1"}, {"size": "384"}]}}}, "dtype": {"type": "DT_FLOAT"}}}, {"name": "StatefulPartitionedCall/ScatterNd", "op": "Const", "attr": {"dtype": {"type": "DT_INT32"}, "value": {"tensor": {"dtype": "DT_INT32", "tensorShape": {"dim": [{"size": "3"}]}}}}}, {"name": "StatefulPartitionedCall/Const_1845", "op": "Const", "attr": {"dtype": {"type": "DT_INT32"}, "value": {"tensor": {"dtype": "DT_INT32", "tensorShape": {}}}}}, {"name": "StatefulPartitionedCall/Const_1847", "op": "Const", "attr": {"value": {"tensor": {"dtype": "DT_INT32", "tensorShape": {}}}, "dtype": {"type": "DT_INT32"}}}, {"name": "StatefulPartitionedCall/Const_1851", "op": "Const", "attr": {"value": {"tensor": {"dtype": "DT_INT32", "tensorShape": {}}}, "dtype": {"type": "DT_INT32"}}}, {"name": "StatefulPartitionedCall/Const_1853", "op": "Const", "attr": {"value": {"tensor": {"dtype": "DT_INT32", "tensorShape": {}}}, "dtype": {"type": "DT_INT32"}}}, {"name": "StatefulPartitionedCall/clip_by_value_1/y", "op": "Const", "attr": {"value": {"tensor": {"dtype": "DT_INT32", "tensorShape": {}}}, "dtype": {"type": "DT_INT32"}}}, {"name": "StatefulPartitionedCall/ones_like", "op": "Const", "attr": {"value": {"tensor": {"dtype": "DT_INT32", "tensorShape": {"dim": [{"size": "3"}]}}}, "dtype": {"type": "DT_INT32"}}}, {"name": "StatefulPartitionedCall/Const_1857", "op": "Const", "attr": {"value": {"tensor": {"dtype": "DT_INT32", "tensorShape": {}}}, "dtype": {"type": "DT_INT32"}}}, {"name": "StatefulPartitionedCall/Const_1861", "op": "Const", "attr": {"dtype": {"type": "DT_INT32"}, "value": {"tensor": {"dtype": "DT_INT32", "tensorShape": {}}}}}, {"name": "StatefulPartitionedCall/jax2tf_arg_197/ReadVariableOp", "op": "Const", "attr": {"value": {"tensor": {"dtype": "DT_FLOAT", "tensorShape": {"dim": [{"size": "384"}, {"size": "1024"}]}}}, "dtype": {"type": "DT_FLOAT"}}}, {"name": "StatefulPartitionedCall/Reshape_199", "op": "Const", "attr": {"dtype": {"type": "DT_FLOAT"}, "value": {"tensor": {"dtype": "DT_FLOAT", "tensorShape": {"dim": [{"size": "1"}, {"size": "1024"}]}}}}}, {"name": "StatefulPartitionedCall/Sum_62/reduction_indices", "op": "Const", "attr": {"value": {"tensor": {"dtype": "DT_INT32", "tensorShape": {"dim": [{"size": "1"}]}}}, "dtype": {"type": "DT_INT32"}}}, {"name": "StatefulPartitionedCall/Const_1869", "op": "Const", "attr": {"dtype": {"type": "DT_INT32"}, "value": {"tensor": {"dtype": "DT_INT32", "tensorShape": {}}}}}, {"name": "StatefulPartitionedCall/strided_slice/stack", "op": "Const", "attr": {"dtype": {"type": "DT_INT32"}, "value": {"tensor": {"dtype": "DT_INT32", "tensorShape": {"dim": [{"size": "1"}]}}}}}, {"name": "StatefulPartitionedCall/strided_slice/stack_1", "op": "Const", "attr": {"dtype": {"type": "DT_INT32"}, "value": {"tensor": {"dtype": "DT_INT32", "tensorShape": {"dim": [{"size": "1"}]}}}}}, {"name": "StatefulPartitionedCall/strided_slice/stack_2", "op": "Const", "attr": {"value": {"tensor": {"dtype": "DT_INT32", "tensorShape": {"dim": [{"size": "1"}]}}}, "dtype": {"type": "DT_INT32"}}}, {"name": "StatefulPartitionedCall/Const_1873", "op": "Const", "attr": {"dtype": {"type": "DT_INT32"}, "value": {"tensor": {"dtype": "DT_INT32", "tensorShape": {}}}}}, {"name": "StatefulPartitionedCall/Const_1875", "op": "Const", "attr": {"value": {"tensor": {"dtype": "DT_FLOAT", "tensorShape": {}}}, "dtype": {"type": "DT_FLOAT"}}}, {"name": "inputs", "op": "Placeholder", "attr": {"shape": {"shape": {"dim": [{"size": "-1"}, {"size": "16"}]}}, "dtype": {"type": "DT_INT32"}}}, {"name": "StatefulPartitionedCall/Less", "op": "Less", "input": ["inputs", "StatefulPartitionedCall/Const_1"], "attr": {"T": {"type": "DT_INT32"}}}, {"name": "StatefulPartitionedCall/AddV2", "op": "AddV2", "input": ["inputs", "StatefulPartitionedCall/Const_3"], "attr": {"T": {"type": "DT_INT32"}}}, {"name": "StatefulPartitionedCall/Shape", "op": "Shape", "input": ["inputs"], "attr": {"out_type": {"type": "DT_INT32"}, "T": {"type": "DT_INT32"}}}, {"name": "StatefulPartitionedCall/SelectV2", "op": "SelectV2", "input": ["StatefulPartitionedCall/Less", "StatefulPartitionedCall/AddV2", "inputs"], "attr": {"T": {"type": "DT_INT32"}}}, {"name": "StatefulPartitionedCall/strided_slice", "op": "StridedSlice", "input": ["StatefulPartitionedCall/Shape", "StatefulPartitionedCall/strided_slice/stack", "StatefulPartitionedCall/strided_slice/stack_1", "StatefulPartitionedCall/strided_slice/stack_2"], "attr": {"ellipsis_mask": {"i": "0"}, "shrink_axis_mask": {"i": "1"}, "new_axis_mask": {"i": "0"}, "end_mask": {"i": "0"}, "Index": {"type": "DT_INT32"}, "T": {"type": "DT_INT32"}, "begin_mask": {"i": "0"}}}, {"name": "StatefulPartitionedCall/Reshape_194/shape", "op": "Pack", "input": ["StatefulPartitionedCall/strided_slice", "StatefulPartitionedCall/Const_1811", "StatefulPartitionedCall/Const_1813"], "attr": {"T": {"type": "DT_INT32"}, "N": {"i": "3"}, "axis": {"i": "0"}}}, {"name": "StatefulPartitionedCall/Reshape_188/shape", "op": "Pack", "input": ["StatefulPartitionedCall/strided_slice", "StatefulPartitionedCall/Const_1759", "StatefulPartitionedCall/Const_1761"], "attr": {"T": {"type": "DT_INT32"}, "N": {"i": "3"}, "axis": {"i": "0"}}}, {"name": "StatefulPartitionedCall/Reshape_178/shape", "op": "Pack", "input": ["StatefulPartitionedCall/strided_slice", "StatefulPartitionedCall/Const_1663", "StatefulPartitionedCall/Const_1665"], "attr": {"N": {"i": "3"}, "axis": {"i": "0"}, "T": {"type": "DT_INT32"}}}, {"name": "StatefulPartitionedCall/Reshape_172/shape", "op": "Pack", "input": ["StatefulPartitionedCall/strided_slice", "StatefulPartitionedCall/Const_1611", "StatefulPartitionedCall/Const_1613"], "attr": {"N": {"i": "3"}, "T": {"type": "DT_INT32"}, "axis": {"i": "0"}}}, {"name": "StatefulPartitionedCall/Reshape_162/shape", "op": "Pack", "input": ["StatefulPartitionedCall/strided_slice", "StatefulPartitionedCall/Const_1515", "StatefulPartitionedCall/Const_1517"], "attr": {"T": {"type": "DT_INT32"}, "axis": {"i": "0"}, "N": {"i": "3"}}}, {"name": "StatefulPartitionedCall/Reshape_156/shape", "op": "Pack", "input": ["StatefulPartitionedCall/strided_slice", "StatefulPartitionedCall/Const_1463", "StatefulPartitionedCall/Const_1465"], "attr": {"N": {"i": "3"}, "T": {"type": "DT_INT32"}, "axis": {"i": "0"}}}, {"name": "StatefulPartitionedCall/Reshape_146/shape", "op": "Pack", "input": ["StatefulPartitionedCall/strided_slice", "StatefulPartitionedCall/Const_1367", "StatefulPartitionedCall/Const_1369"], "attr": {"T": {"type": "DT_INT32"}, "axis": {"i": "0"}, "N": {"i": "3"}}}, {"name": "StatefulPartitionedCall/Reshape_140/shape", "op": "Pack", "input": ["StatefulPartitionedCall/strided_slice", "StatefulPartitionedCall/Const_1315", "StatefulPartitionedCall/Const_1317"], "attr": {"N": {"i": "3"}, "axis": {"i": "0"}, "T": {"type": "DT_INT32"}}}, {"name": "StatefulPartitionedCall/Reshape_130/shape", "op": "Pack", "input": ["StatefulPartitionedCall/strided_slice", "StatefulPartitionedCall/Const_1219", "StatefulPartitionedCall/Const_1221"], "attr": {"N": {"i": "3"}, "axis": {"i": "0"}, "T": {"type": "DT_INT32"}}}, {"name": "StatefulPartitionedCall/Reshape_124/shape", "op": "Pack", "input": ["StatefulPartitionedCall/strided_slice", "StatefulPartitionedCall/Const_1167", "StatefulPartitionedCall/Const_1169"], "attr": {"axis": {"i": "0"}, "T": {"type": "DT_INT32"}, "N": {"i": "3"}}}, {"name": "StatefulPartitionedCall/Reshape_114/shape", "op": "Pack", "input": ["StatefulPartitionedCall/strided_slice", "StatefulPartitionedCall/Const_1071", "StatefulPartitionedCall/Const_1073"], "attr": {"T": {"type": "DT_INT32"}, "axis": {"i": "0"}, "N": {"i": "3"}}}, {"name": "StatefulPartitionedCall/Reshape_108/shape", "op": "Pack", "input": ["StatefulPartitionedCall/strided_slice", "StatefulPartitionedCall/Const_1019", "StatefulPartitionedCall/Const_1021"], "attr": {"N": {"i": "3"}, "axis": {"i": "0"}, "T": {"type": "DT_INT32"}}}, {"name": "StatefulPartitionedCall/Reshape_98/shape", "op": "Pack", "input": ["StatefulPartitionedCall/strided_slice", "StatefulPartitionedCall/Const_923", "StatefulPartitionedCall/Const_925"], "attr": {"N": {"i": "3"}, "axis": {"i": "0"}, "T": {"type": "DT_INT32"}}}, {"name": "StatefulPartitionedCall/Reshape_92/shape", "op": "Pack", "input": ["StatefulPartitionedCall/strided_slice", "StatefulPartitionedCall/Const_871", "StatefulPartitionedCall/Const_873"], "attr": {"axis": {"i": "0"}, "T": {"type": "DT_INT32"}, "N": {"i": "3"}}}, {"name": "StatefulPartitionedCall/Reshape_82/shape", "op": "Pack", "input": ["StatefulPartitionedCall/strided_slice", "StatefulPartitionedCall/Const_775", "StatefulPartitionedCall/Const_777"], "attr": {"T": {"type": "DT_INT32"}, "axis": {"i": "0"}, "N": {"i": "3"}}}, {"name": "StatefulPartitionedCall/Reshape_76/shape", "op": "Pack", "input": ["StatefulPartitionedCall/strided_slice", "StatefulPartitionedCall/Const_723", "StatefulPartitionedCall/Const_725"], "attr": {"T": {"type": "DT_INT32"}, "N": {"i": "3"}, "axis": {"i": "0"}}}, {"name": "StatefulPartitionedCall/Reshape_66/shape", "op": "Pack", "input": ["StatefulPartitionedCall/strided_slice", "StatefulPartitionedCall/Const_627", "StatefulPartitionedCall/Const_629"], "attr": {"N": {"i": "3"}, "axis": {"i": "0"}, "T": {"type": "DT_INT32"}}}, {"name": "StatefulPartitionedCall/Reshape_60/shape", "op": "Pack", "input": ["StatefulPartitionedCall/strided_slice", "StatefulPartitionedCall/Const_575", "StatefulPartitionedCall/Const_577"], "attr": {"T": {"type": "DT_INT32"}, "N": {"i": "3"}, "axis": {"i": "0"}}}, {"name": "StatefulPartitionedCall/Reshape_50/shape", "op": "Pack", "input": ["StatefulPartitionedCall/strided_slice", "StatefulPartitionedCall/Const_479", "StatefulPartitionedCall/Const_481"], "attr": {"axis": {"i": "0"}, "T": {"type": "DT_INT32"}, "N": {"i": "3"}}}, {"name": "StatefulPartitionedCall/Reshape_44/shape", "op": "Pack", "input": ["StatefulPartitionedCall/strided_slice", "StatefulPartitionedCall/Const_427", "StatefulPartitionedCall/Const_429"], "attr": {"N": {"i": "3"}, "T": {"type": "DT_INT32"}, "axis": {"i": "0"}}}, {"name": "StatefulPartitionedCall/Reshape_34/shape", "op": "Pack", "input": ["StatefulPartitionedCall/strided_slice", "StatefulPartitionedCall/Const_331", "StatefulPartitionedCall/Const_333"], "attr": {"axis": {"i": "0"}, "T": {"type": "DT_INT32"}, "N": {"i": "3"}}}, {"name": "StatefulPartitionedCall/Reshape_28/shape", "op": "Pack", "input": ["StatefulPartitionedCall/strided_slice", "StatefulPartitionedCall/Const_279", "StatefulPartitionedCall/Const_281"], "attr": {"axis": {"i": "0"}, "N": {"i": "3"}, "T": {"type": "DT_INT32"}}}, {"name": "StatefulPartitionedCall/Reshape_18/shape", "op": "Pack", "input": ["StatefulPartitionedCall/strided_slice", "StatefulPartitionedCall/Const_183", "StatefulPartitionedCall/Const_185"], "attr": {"axis": {"i": "0"}, "N": {"i": "3"}, "T": {"type": "DT_INT32"}}}, {"name": "StatefulPartitionedCall/Reshape_12/shape", "op": "Pack", "input": ["StatefulPartitionedCall/strided_slice", "StatefulPartitionedCall/Const_131", "StatefulPartitionedCall/Const_133"], "attr": {"T": {"type": "DT_INT32"}, "axis": {"i": "0"}, "N": {"i": "3"}}}, {"name": "StatefulPartitionedCall/Reshape_2/shape", "op": "Pack", "input": ["StatefulPartitionedCall/strided_slice", "StatefulPartitionedCall/Const_35", "StatefulPartitionedCall/Const_37"], "attr": {"N": {"i": "3"}, "axis": {"i": "0"}, "T": {"type": "DT_INT32"}}}, {"name": "StatefulPartitionedCall/Reshape/shape", "op": "Pack", "input": ["StatefulPartitionedCall/strided_slice", "StatefulPartitionedCall/Const_7", "StatefulPartitionedCall/Const_9"], "attr": {"axis": {"i": "0"}, "N": {"i": "3"}, "T": {"type": "DT_INT32"}}}, {"name": "StatefulPartitionedCall/BroadcastTo/shape", "op": "Pack", "input": ["StatefulPartitionedCall/strided_slice", "StatefulPartitionedCall/Const_13", "StatefulPartitionedCall/Const_15"], "attr": {"N": {"i": "3"}, "T": {"type": "DT_INT32"}, "axis": {"i": "0"}}}, {"name": "StatefulPartitionedCall/Reshape_1/shape", "op": "Pack", "input": ["StatefulPartitionedCall/strided_slice", "StatefulPartitionedCall/Const_29", "StatefulPartitionedCall/Const_31"], "attr": {"axis": {"i": "0"}, "T": {"type": "DT_INT32"}, "N": {"i": "3"}}}, {"name": "StatefulPartitionedCall/Reshape_8/shape", "op": "Pack", "input": ["StatefulPartitionedCall/strided_slice", "StatefulPartitionedCall/Const_81", "StatefulPartitionedCall/Const_83", "StatefulPartitionedCall/Const_85"], "attr": {"N": {"i": "4"}, "T": {"type": "DT_INT32"}, "axis": {"i": "0"}}}, {"name": "StatefulPartitionedCall/BroadcastTo_1/shape", "op": "Pack", "input": ["StatefulPartitionedCall/strided_slice", "StatefulPartitionedCall/Const_89", "StatefulPartitionedCall/Const_91", "StatefulPartitionedCall/Const_93"], "attr": {"N": {"i": "4"}, "T": {"type": "DT_INT32"}, "axis": {"i": "0"}}}, {"name": "StatefulPartitionedCall/Reshape_9/shape", "op": "Pack", "input": ["StatefulPartitionedCall/strided_slice", "StatefulPartitionedCall/Const_97", "StatefulPartitionedCall/Const_99", "StatefulPartitionedCall/Const_101"], "attr": {"N": {"i": "4"}, "axis": {"i": "0"}, "T": {"type": "DT_INT32"}}}, {"name": "StatefulPartitionedCall/BroadcastTo_2/shape", "op": "Pack", "input": ["StatefulPartitionedCall/strided_slice", "StatefulPartitionedCall/Const_105", "StatefulPartitionedCall/Const_107", "StatefulPartitionedCall/Const_109"], "attr": {"N": {"i": "4"}, "axis": {"i": "0"}, "T": {"type": "DT_INT32"}}}, {"name": "StatefulPartitionedCall/Reshape_11/shape", "op": "Pack", "input": ["StatefulPartitionedCall/strided_slice", "StatefulPartitionedCall/Const_125", "StatefulPartitionedCall/Const_127"], "attr": {"T": {"type": "DT_INT32"}, "axis": {"i": "0"}, "N": {"i": "3"}}}, {"name": "StatefulPartitionedCall/Reshape_17/shape", "op": "Pack", "input": ["StatefulPartitionedCall/strided_slice", "StatefulPartitionedCall/Const_177", "StatefulPartitionedCall/Const_179"], "attr": {"N": {"i": "3"}, "axis": {"i": "0"}, "T": {"type": "DT_INT32"}}}, {"name": "StatefulPartitionedCall/Reshape_24/shape", "op": "Pack", "input": ["StatefulPartitionedCall/strided_slice", "StatefulPartitionedCall/Const_229", "StatefulPartitionedCall/Const_231", "StatefulPartitionedCall/Const_233"], "attr": {"N": {"i": "4"}, "T": {"type": "DT_INT32"}, "axis": {"i": "0"}}}, {"name": "StatefulPartitionedCall/BroadcastTo_3/shape", "op": "Pack", "input": ["StatefulPartitionedCall/strided_slice", "StatefulPartitionedCall/Const_237", "StatefulPartitionedCall/Const_239", "StatefulPartitionedCall/Const_241"], "attr": {"axis": {"i": "0"}, "N": {"i": "4"}, "T": {"type": "DT_INT32"}}}, {"name": "StatefulPartitionedCall/Reshape_25/shape", "op": "Pack", "input": ["StatefulPartitionedCall/strided_slice", "StatefulPartitionedCall/Const_245", "StatefulPartitionedCall/Const_247", "StatefulPartitionedCall/Const_249"], "attr": {"axis": {"i": "0"}, "T": {"type": "DT_INT32"}, "N": {"i": "4"}}}, {"name": "StatefulPartitionedCall/BroadcastTo_4/shape", "op": "Pack", "input": ["StatefulPartitionedCall/strided_slice", "StatefulPartitionedCall/Const_253", "StatefulPartitionedCall/Const_255", "StatefulPartitionedCall/Const_257"], "attr": {"T": {"type": "DT_INT32"}, "axis": {"i": "0"}, "N": {"i": "4"}}}, {"name": "StatefulPartitionedCall/Reshape_27/shape", "op": "Pack", "input": ["StatefulPartitionedCall/strided_slice", "StatefulPartitionedCall/Const_273", "StatefulPartitionedCall/Const_275"], "attr": {"axis": {"i": "0"}, "T": {"type": "DT_INT32"}, "N": {"i": "3"}}}, {"name": "StatefulPartitionedCall/Reshape_33/shape", "op": "Pack", "input": ["StatefulPartitionedCall/strided_slice", "StatefulPartitionedCall/Const_325", "StatefulPartitionedCall/Const_327"], "attr": {"axis": {"i": "0"}, "T": {"type": "DT_INT32"}, "N": {"i": "3"}}}, {"name": "StatefulPartitionedCall/Reshape_40/shape", "op": "Pack", "input": ["StatefulPartitionedCall/strided_slice", "StatefulPartitionedCall/Const_377", "StatefulPartitionedCall/Const_379", "StatefulPartitionedCall/Const_381"], "attr": {"N": {"i": "4"}, "axis": {"i": "0"}, "T": {"type": "DT_INT32"}}}, {"name": "StatefulPartitionedCall/BroadcastTo_5/shape", "op": "Pack", "input": ["StatefulPartitionedCall/strided_slice", "StatefulPartitionedCall/Const_385", "StatefulPartitionedCall/Const_387", "StatefulPartitionedCall/Const_389"], "attr": {"N": {"i": "4"}, "T": {"type": "DT_INT32"}, "axis": {"i": "0"}}}, {"name": "StatefulPartitionedCall/Reshape_41/shape", "op": "Pack", "input": ["StatefulPartitionedCall/strided_slice", "StatefulPartitionedCall/Const_393", "StatefulPartitionedCall/Const_395", "StatefulPartitionedCall/Const_397"], "attr": {"T": {"type": "DT_INT32"}, "axis": {"i": "0"}, "N": {"i": "4"}}}, {"name": "StatefulPartitionedCall/BroadcastTo_6/shape", "op": "Pack", "input": ["StatefulPartitionedCall/strided_slice", "StatefulPartitionedCall/Const_401", "StatefulPartitionedCall/Const_403", "StatefulPartitionedCall/Const_405"], "attr": {"N": {"i": "4"}, "axis": {"i": "0"}, "T": {"type": "DT_INT32"}}}, {"name": "StatefulPartitionedCall/Reshape_43/shape", "op": "Pack", "input": ["StatefulPartitionedCall/strided_slice", "StatefulPartitionedCall/Const_421", "StatefulPartitionedCall/Const_423"], "attr": {"N": {"i": "3"}, "T": {"type": "DT_INT32"}, "axis": {"i": "0"}}}, {"name": "StatefulPartitionedCall/Resh…
titionedCall/Const_925", "shape": [], "dtype": "int32"}, {"name": "StatefulPartitionedCall/Const_927", "shape": [], "dtype": "float32"}, {"name": "StatefulPartitionedCall/Reshape_99", "shape": [1, 1, 384], "dtype": "float32"}, {"name": "StatefulPartitionedCall/Reshape_96", "shape": [1, 1, 384], "dtype": "float32"}, {"name": "StatefulPartitionedCall/Const_901", "shape": [], "dtype": "float32"}, {"name": "StatefulPartitionedCall/Const_895", "shape": [], "dtype": "float32"}, {"name": "StatefulPartitionedCall/Const_861", "shape": [], "dtype": "float32"}, {"name": "StatefulPartitionedCall/Sum_29/reduction_indices", "shape": [1], "dtype": "int32"}, {"name": "ConstantFolding/StatefulPartitionedCall/truediv_35_recip", "shape": [], "dtype": "float32"}, {"name": "StatefulPartitionedCall/Const_871", "shape": [], "dtype": "int32"}, {"name": "StatefulPartitionedCall/Const_873", "shape": [], "dtype": "int32"}, {"name": "StatefulPartitionedCall/Const_875", "shape": [], "dtype": "float32"}, {"name": "StatefulPartitionedCall/Reshape_93", "shape": [1, 1, 384], "dtype": "float32"}, {"name": "StatefulPartitionedCall/Reshape_90", "shape": [1, 1, 384], "dtype": "float32"}, {"name": "StatefulPartitionedCall/jax2tf_arg_131/ReadVariableOp", "shape": [384, 6, 64], "dtype": "float32"}, {"name": "StatefulPartitionedCall/Reshape_87", "shape": [1, 1, 6, 64], "dtype": "float32"}, {"name": "StatefulPartitionedCall/jax2tf_arg_129/ReadVariableOp", "shape": [384, 6, 64], "dtype": "float32"}, {"name": "StatefulPartitionedCall/Reshape_85", "shape": [1, 1, 6, 64], "dtype": "float32"}, {"name": "ConstantFolding/StatefulPartitionedCall/truediv_32_recip", "shape": [], "dtype": "float32"}, {"name": "StatefulPartitionedCall/Const_765", "shape": [], "dtype": "float32"}, {"name": "StatefulPartitionedCall/Sum_26/reduction_indices", "shape": [1], "dtype": "int32"}, {"name": "ConstantFolding/StatefulPartitionedCall/truediv_31_recip", "shape": [], "dtype": "float32"}, {"name": "StatefulPartitionedCall/Const_775", "shape": [], "dtype": "int32"}, {"name": "StatefulPartitionedCall/Const_777", "shape": [], "dtype": "int32"}, {"name": "StatefulPartitionedCall/Const_779", "shape": [], "dtype": "float32"}, {"name": "StatefulPartitionedCall/Reshape_83", "shape": [1, 1, 384], "dtype": "float32"}, {"name": "StatefulPartitionedCall/Reshape_80", "shape": [1, 1, 384], "dtype": "float32"}, {"name": "StatefulPartitionedCall/Const_753", "shape": [], "dtype": "float32"}, {"name": "StatefulPartitionedCall/Const_747", "shape": [], "dtype": "float32"}, {"name": "StatefulPartitionedCall/Const_713", "shape": [], "dtype": "float32"}, {"name": "StatefulPartitionedCall/Sum_24/reduction_indices", "shape": [1], "dtype": "int32"}, {"name": "ConstantFolding/StatefulPartitionedCall/truediv_29_recip", "shape": [], "dtype": "float32"}, {"name": "StatefulPartitionedCall/Const_723", "shape": [], "dtype": "int32"}, {"name": "StatefulPartitionedCall/Const_725", "shape": [], "dtype": "int32"}, {"name": "StatefulPartitionedCall/Const_727", "shape": [], "dtype": "float32"}, {"name": "StatefulPartitionedCall/Reshape_77", "shape": [1, 1, 384], "dtype": "float32"}, {"name": "StatefulPartitionedCall/Reshape_74", "shape": [1, 1, 384], "dtype": "float32"}, {"name": "StatefulPartitionedCall/jax2tf_arg_115/ReadVariableOp", "shape": [384, 6, 64], "dtype": "float32"}, {"name": "StatefulPartitionedCall/Reshape_71", "shape": [1, 1, 6, 64], "dtype": "float32"}, {"name": "StatefulPartitionedCall/jax2tf_arg_113/ReadVariableOp", "shape": [384, 6, 64], "dtype": "float32"}, {"name": "StatefulPartitionedCall/Reshape_69", "shape": [1, 1, 6, 64], "dtype": "float32"}, {"name": "ConstantFolding/StatefulPartitionedCall/truediv_26_recip", "shape": [], "dtype": "float32"}, {"name": "StatefulPartitionedCall/Const_617", "shape": [], "dtype": "float32"}, {"name": "StatefulPartitionedCall/Sum_21/reduction_indices", "shape": [1], "dtype": "int32"}, {"name": "ConstantFolding/StatefulPartitionedCall/truediv_25_recip", "shape": [], "dtype": "float32"}, {"name": "StatefulPartitionedCall/Const_627", "shape": [], "dtype": "int32"}, {"name": "StatefulPartitionedCall/Const_629", "shape": [], "dtype": "int32"}, {"name": "StatefulPartitionedCall/Const_631", "shape": [], "dtype": "float32"}, {"name": "StatefulPartitionedCall/Reshape_67", "shape": [1, 1, 384], "dtype": "float32"}, {"name": "StatefulPartitionedCall/Reshape_64", "shape": [1, 1, 384], "dtype": "float32"}, {"name": "StatefulPartitionedCall/Const_605", "shape": [], "dtype": "float32"}, {"name": "StatefulPartitionedCall/Const_599", "shape": [], "dtype": "float32"}, {"name": "StatefulPartitionedCall/Const_565", "shape": [], "dtype": "float32"}, {"name": "StatefulPartitionedCall/Sum_19/reduction_indices", "shape": [1], "dtype": "int32"}, {"name": "ConstantFolding/StatefulPartitionedCall/truediv_23_recip", "shape": [], "dtype": "float32"}, {"name": "StatefulPartitionedCall/Const_575", "shape": [], "dtype": "int32"}, {"name": "StatefulPartitionedCall/Const_577", "shape": [], "dtype": "int32"}, {"name": "StatefulPartitionedCall/Const_579", "shape": [], "dtype": "float32"}, {"name": "StatefulPartitionedCall/Reshape_61", "shape": [1, 1, 384], "dtype": "float32"}, {"name": "StatefulPartitionedCall/Reshape_58", "shape": [1, 1, 384], "dtype": "float32"}, {"name": "StatefulPartitionedCall/jax2tf_arg_99/ReadVariableOp", "shape": [384, 6, 64], "dtype": "float32"}, {"name": "StatefulPartitionedCall/Reshape_55", "shape": [1, 1, 6, 64], "dtype": "float32"}, {"name": "StatefulPartitionedCall/jax2tf_arg_97/ReadVariableOp", "shape": [384, 6, 64], "dtype": "float32"}, {"name": "StatefulPartitionedCall/Reshape_53", "shape": [1, 1, 6, 64], "dtype": "float32"}, {"name": "ConstantFolding/StatefulPartitionedCall/truediv_20_recip", "shape": [], "dtype": "float32"}, {"name": "StatefulPartitionedCall/Const_469", "shape": [], "dtype": "float32"}, {"name": "StatefulPartitionedCall/Sum_16/reduction_indices", "shape": [1], "dtype": "int32"}, {"name": "ConstantFolding/StatefulPartitionedCall/truediv_19_recip", "shape": [], "dtype": "float32"}, {"name": "StatefulPartitionedCall/Const_479", "shape": [], "dtype": "int32"}, {"name": "StatefulPartitionedCall/Const_481", "shape": [], "dtype": "int32"}, {"name": "StatefulPartitionedCall/Const_483", "shape": [], "dtype": "float32"}, {"name": "StatefulPartitionedCall/Reshape_51", "shape": [1, 1, 384], "dtype": "float32"}, {"name": "StatefulPartitionedCall/Reshape_48", "shape": [1, 1, 384], "dtype": "float32"}, {"name": "StatefulPartitionedCall/Const_457", "shape": [], "dtype": "float32"}, {"name": "StatefulPartitionedCall/Const_451", "shape": [], "dtype": "float32"}, {"name": "StatefulPartitionedCall/Const_417", "shape": [], "dtype": "float32"}, {"name": "StatefulPartitionedCall/Sum_14/reduction_indices", "shape": [1], "dtype": "int32"}, {"name": "ConstantFolding/StatefulPartitionedCall/truediv_17_recip", "shape": [], "dtype": "float32"}, {"name": "StatefulPartitionedCall/Const_427", "shape": [], "dtype": "int32"}, {"name": "StatefulPartitionedCall/Const_429", "shape": [], "dtype": "int32"}, {"name": "StatefulPartitionedCall/Const_431", "shape": [], "dtype": "float32"}, {"name": "StatefulPartitionedCall/Reshape_45", "shape": [1, 1, 384], "dtype": "float32"}, {"name": "StatefulPartitionedCall/Reshape_42", "shape": [1, 1, 384], "dtype": "float32"}, {"name": "StatefulPartitionedCall/jax2tf_arg_83/ReadVariableOp", "shape": [384, 6, 64], "dtype": "float32"}, {"name": "StatefulPartitionedCall/Reshape_39", "shape": [1, 1, 6, 64], "dtype": "float32"}, {"name": "StatefulPartitionedCall/jax2tf_arg_81/ReadVariableOp", "shape": [384, 6, 64], "dtype": "float32"}, {"name": "StatefulPartitionedCall/Reshape_37", "shape": [1, 1, 6, 64], "dtype": "float32"}, {"name": "ConstantFolding/StatefulPartitionedCall/truediv_14_recip", "shape": [], "dtype": "float32"}, {"name": "StatefulPartitionedCall/Const_321", "shape": [], "dtype": "float32"}, {"name": "StatefulPartitionedCall/Sum_11/reduction_indices", "shape": [1], "dtype": "int32"}, {"name": "ConstantFolding/StatefulPartitionedCall/truediv_13_recip", "shape": [], "dtype": "float32"}, {"name": "StatefulPartitionedCall/Const_331", "shape": [], "dtype": "int32"}, {"name": "StatefulPartitionedCall/Const_333", "shape": [], "dtype": "int32"}, {"name": "StatefulPartitionedCall/Const_335", "shape": [], "dtype": "float32"}, {"name": "StatefulPartitionedCall/Reshape_35", "shape": [1, 1, 384], "dtype": "float32"}, {"name": "StatefulPartitionedCall/Reshape_32", "shape": [1, 1, 384], "dtype": "float32"}, {"name": "StatefulPartitionedCall/Const_309", "shape": [], "dtype": "float32"}, {"name": "StatefulPartitionedCall/Const_303", "shape": [], "dtype": "float32"}, {"name": "StatefulPartitionedCall/Const_269", "shape": [], "dtype": "float32"}, {"name": "StatefulPartitionedCall/Sum_9/reduction_indices", "shape": [1], "dtype": "int32"}, {"name": "ConstantFolding/StatefulPartitionedCall/truediv_11_recip", "shape": [], "dtype": "float32"}, {"name": "StatefulPartitionedCall/Const_279", "shape": [], "dtype": "int32"}, {"name": "StatefulPartitionedCall/Const_281", "shape": [], "dtype": "int32"}, {"name": "StatefulPartitionedCall/Const_283", "shape": [], "dtype": "float32"}, {"name": "StatefulPartitionedCall/Reshape_29", "shape": [1, 1, 384], "dtype": "float32"}, {"name": "StatefulPartitionedCall/Reshape_26", "shape": [1, 1, 384], "dtype": "float32"}, {"name": "StatefulPartitionedCall/jax2tf_arg_35/ReadVariableOp", "shape": [384, 6, 64], "dtype": "float32"}, {"name": "StatefulPartitionedCall/Reshape_23", "shape": [1, 1, 6, 64], "dtype": "float32"}, {"name": "StatefulPartitionedCall/jax2tf_arg_33/ReadVariableOp", "shape": [384, 6, 64], "dtype": "float32"}, {"name": "StatefulPartitionedCall/Reshape_21", "shape": [1, 1, 6, 64], "dtype": "float32"}, {"name": "ConstantFolding/StatefulPartitionedCall/truediv_8_recip", "shape": [], "dtype": "float32"}, {"name": "StatefulPartitionedCall/Const_173", "shape": [], "dtype": "float32"}, {"name": "StatefulPartitionedCall/Sum_6/reduction_indices", "shape": [1], "dtype": "int32"}, {"name": "ConstantFolding/StatefulPartitionedCall/truediv_7_recip", "shape": [], "dtype": "float32"}, {"name": "StatefulPartitionedCall/Const_183", "shape": [], "dtype": "int32"}, {"name": "StatefulPartitionedCall/Const_185", "shape": [], "dtype": "int32"}, {"name": "StatefulPartitionedCall/Const_187", "shape": [], "dtype": "float32"}, {"name": "StatefulPartitionedCall/Reshape_19", "shape": [1, 1, 384], "dtype": "float32"}, {"name": "StatefulPartitionedCall/Reshape_16", "shape": [1, 1, 384], "dtype": "float32"}, {"name": "StatefulPartitionedCall/Const_161", "shape": [], "dtype": "float32"}, {"name": "StatefulPartitionedCall/Const_155", "shape": [], "dtype": "float32"}, {"name": "StatefulPartitionedCall/Const_121", "shape": [], "dtype": "float32"}, {"name": "StatefulPartitionedCall/Sum_4/reduction_indices", "shape": [1], "dtype": "int32"}, {"name": "ConstantFolding/StatefulPartitionedCall/truediv_5_recip", "shape": [], "dtype": "float32"}, {"name": "StatefulPartitionedCall/Const_131", "shape": [], "dtype": "int32"}, {"name": "StatefulPartitionedCall/Const_133", "shape": [], "dtype": "int32"}, {"name": "StatefulPartitionedCall/Const_135", "shape": [], "dtype": "float32"}, {"name": "StatefulPartitionedCall/Reshape_13", "shape": [1, 1, 384], "dtype": "float32"}, {"name": "StatefulPartitionedCall/Reshape_10", "shape": [1, 1, 384], "dtype": "float32"}, {"name": "StatefulPartitionedCall/jax2tf_arg_19/ReadVariableOp", "shape": [384, 6, 64], "dtype": "float32"}, {"name": "StatefulPartitionedCall/Reshape_7", "shape": [1, 1, 6, 64], "dtype": "float32"}, {"name": "StatefulPartitionedCall/jax2tf_arg_17/ReadVariableOp", "shape": [384, 6, 64], "dtype": "float32"}, {"name": "StatefulPartitionedCall/Reshape_5", "shape": [1, 1, 6, 64], "dtype": "float32"}, {"name": "ConstantFolding/StatefulPartitionedCall/truediv_2_recip", "shape": [], "dtype": "float32"}, {"name": "StatefulPartitionedCall/Const_25", "shape": [], "dtype": "float32"}, {"name": "StatefulPartitionedCall/Sum_1/reduction_indices", "shape": [1], "dtype": "int32"}, {"name": "ConstantFolding/StatefulPartitionedCall/truediv_1_recip", "shape": [], "dtype": "float32"}, {"name": "StatefulPartitionedCall/Const_35", "shape": [], "dtype": "int32"}, {"name": "StatefulPartitionedCall/Const_37", "shape": [], "dtype": "int32"}, {"name": "StatefulPartitionedCall/Const_39", "shape": [], "dtype": "float32"}, {"name": "StatefulPartitionedCall/Reshape_3", "shape": [1, 1, 384], "dtype": "float32"}, {"name": "StatefulPartitionedCall/jax2tf_arg_1/ReadVariableOp", "shape": [16000, 384], "dtype": "float32"}, {"name": "StatefulPartitionedCall/Const_1", "shape": [], "dtype": "int32"}, {"name": "StatefulPartitionedCall/Const_3", "shape": [], "dtype": "int32"}, {"name": "StatefulPartitionedCall/Const_7", "shape": [], "dtype": "int32"}, {"name": "StatefulPartitionedCall/Const_9", "shape": [], "dtype": "int32"}, {"name": "StatefulPartitionedCall/Const_13", "shape": [], "dtype": "int32"}, {"name": "StatefulPartitionedCall/Const_15", "shape": [], "dtype": "int32"}, {"name": "StatefulPartitionedCall/Sub", "shape": [1], "dtype": "int32"}, {"name": "StatefulPartitionedCall/clip_by_value/y", "shape": [], "dtype": "int32"}, {"name": "StatefulPartitionedCall/GatherV2/axis", "shape": [], "dtype": "int32"}, {"name": "StatefulPartitionedCall/jax2tf_arg_198/ReadVariableOp", "shape": [1, 16, 384], "dtype": "float32"}, {"name": "StatefulPartitionedCall/Sum/reduction_indices", "shape": [1], "dtype": "int32"}, {"name": "ConstantFolding/StatefulPartitionedCall/truediv_recip", "shape": [], "dtype": "float32"}, {"name": "StatefulPartitionedCall/Const_29", "shape": [], "dtype": "int32"}, {"name": "StatefulPartitionedCall/Const_31", "shape": [], "dtype": "int32"}, {"name": "StatefulPartitionedCall/Reshape_4", "shape": [1, 1, 384], "dtype": "float32"}, {"name": "StatefulPartitionedCall/jax2tf_arg_13/ReadVariableOp", "shape": [384, 6, 64], "dtype": "float32"}, {"name": "StatefulPartitionedCall/Reshape_6", "shape": [1, 1, 6, 64], "dtype": "float32"}, {"name": "StatefulPartitionedCall/Max/reduction_indices", "shape": [1], "dtype": "int32"}, {"name": "StatefulPartitionedCall/Const_81", "shape": [], "dtype": "int32"}, {"name": "StatefulPartitionedCall/Const_83", "shape": [], "dtype": "int32"}, {"name": "StatefulPartitionedCall/Const_85", "shape": [], "dtype": "int32"}, {"name": "StatefulPartitionedCall/Const_89", "shape": [], "dtype": "int32"}, {"name": "StatefulPartitionedCall/Const_91", "shape": [], "dtype": "int32"}, {"name": "StatefulPartitionedCall/Const_93", "shape": [], "dtype": "int32"}, {"name": "StatefulPartitionedCall/Sum_2/reduction_indices", "shape": [1], "dtype": "int32"}, {"name": "StatefulPartitionedCall/Const_97", "shape": [], "dtype": "int32"}, {"name": "StatefulPartitionedCall/Const_99", "shape": [], "dtype": "int32"}, {"name": "StatefulPartitionedCall/Const_101", "shape": [], "dtype": "int32"}, {"name": "StatefulPartitionedCall/Const_105", "shape": [], "dtype": "int32"}, {"name": "StatefulPartitionedCall/Const_107", "shape": [], "dtype": "int32"}, {"name": "StatefulPartitionedCall/Const_109", "shape": [], "dtype": "int32"}, {"name": "StatefulPartitionedCall/transpose_7/perm", "shape": [4], "dtype": "int32"}, {"name": "StatefulPartitionedCall/jax2tf_arg_15/ReadVariableOp", "shape": [6, 64, 384], "dtype": "float32"}, {"name": "StatefulPartitionedCall/Sum_3/reduction_indices", "shape": [1], "dtype": "int32"}, {"name": "ConstantFolding/StatefulPartitionedCall/truediv_4_recip", "shape": [], "dtype": "float32"}, {"name": "StatefulPartitionedCall/Const_125", "shape": [], "dtype": "int32"}, {"name": "StatefulPartitionedCall/Const_127", "shape": [], "dtype": "int32"}, {"name": "StatefulPartitionedCall/Reshape_14", "shape": [1, 1, 384], "dtype": "float32"}, {"name": "StatefulPartitionedCall/jax2tf_arg_9/ReadVariableOp", "shape": [384, 1536], "dtype": "float32"}, {"name": "StatefulPartitionedCall/Reshape_15", "shape": [1, 1, 1536], "dtype": "float32"}, {"name": "StatefulPartitionedCall/Const_157", "shape": [], "dtype": "float32"}, {"name": "StatefulPartitionedCall/Const_159", "shape": [], "dtype": "float32"}, {"name": "StatefulPartitionedCall/jax2tf_arg_11/ReadVariableOp", "shape": [1536, 384], "dtype": "float32"}, {"name": "StatefulPartitionedCall/Sum_5/reduction_indices", "shape": [1], "dtype": "int32"}, {"name": "ConstantFolding/StatefulPartitionedCall/truediv_6_recip", "shape": [], "dtype": "float32"}, {"name": "StatefulPartitionedCall/Const_177", "shape": [], "dtype": "int32"}, {"name": "StatefulPartitionedCall/Const_179", "shape": [], "dtype": "int32"}, {"name": "StatefulPartitionedCall/Reshape_20", "shape": [1, 1, 384], "dtype": "float32"}, {"name": "StatefulPartitionedCall/jax2tf_arg_29/ReadVariableOp", "shape": [384, 6, 64], "dtype": "float32"}, {"name": "StatefulPartitionedCall/Reshape_22", "shape": [1, 1, 6, 64], "dtype": "float32"}, {"name": "StatefulPartitionedCall/Max_1/reduction_indices", "shape": [1], "dtype": "int32"}, {"name": "StatefulPartitionedCall/Const_229", "shape": [], "dtype": "int32"}, {"name": "StatefulPartitionedCall/Const_231", "shape": [], "dtype": "int32"}, {"name": "StatefulPartitionedCall/Const_233", "shape": [], "dtype": "int32"}, {"name": "StatefulPartitionedCall/Const_237", "shape": [], "dtype": "int32"}, {"name": "StatefulPartitionedCall/Const_239", "shape": [], "dtype": "int32"}, {"name": "StatefulPartitionedCall/Const_241", "shape": [], "dtype": "int32"}, {"name": "StatefulPartitionedCall/Sum_7/reduction_indices", "shape": [1], "dtype": "int32"}, {"name": "StatefulPartitionedCall/Const_245", "shape": [], "dtype": "int32"}, {"name": "StatefulPartitionedCall/Const_247", "shape": [], "dtype": "int32"}, {"name": "StatefulPartitionedCall/Const_249", "shape": [], "dtype": "int32"}, {"name": "StatefulPartitionedCall/Const_253", "shape": [], "dtype": "int32"}, {"name": "StatefulPartitionedCall/Const_255", "shape": [], "dtype": "int32"}, {"name": "StatefulPartitionedCall/Const_257", "shape": [], "dtype": "int32"}, {"name": "StatefulPartitionedCall/transpose_22/perm", "shape": [4], "dtype": "int32"}, {"name": "StatefulPartitionedCall/jax2tf_arg_31/ReadVariableOp", "shape": [6, 64, 384], "dtype": "float32"}, {"name": "StatefulPartitionedCall/Sum_8/reduction_indices", "shape": [1], "dtype": "int32"}, {"name": "ConstantFolding/StatefulPartitionedCall/truediv_10_recip", "shape": [], "dtype": "float32"}, {"name": "StatefulPartitionedCall/Const_273", "shape": [], "dtype": "int32"}, {"name": "StatefulPartitionedCall/Const_275", "shape": [], "dtype": "int32"}, {"name": "StatefulPartitionedCall/Reshape_30", "shape": [1, 1, 384], "dtype": "float32"}, {"name": "StatefulPartitionedCall/jax2tf_arg_25/ReadVariableOp", "shape": [384, 1536], "dtype": "float32"}, {"name": "StatefulPartitionedCall/Reshape_31", "shape": [1, 1, 1536], "dtype": "float32"}, {"name": "StatefulPartitionedCall/Const_305", "shape": [], "dtype": "float32"}, {"name": "StatefulPartitionedCall/Const_307", "shape": [], "dtype": "float32"}, {"name": "StatefulPartitionedCall/jax2tf_arg_27/ReadVariableOp", "shape": [1536, 384], "dtype": "float32"}, {"name": "StatefulPartitionedCall/Sum_10/reduction_indices", "shape": [1], "dtype": "int32"}, {"name": "ConstantFolding/StatefulPartitionedCall/truediv_12_recip", "shape": [], "dtype": "float32"}, {"name": "StatefulPartitionedCall/Const_325", "shape": [], "dtype": "int32"}, {"name": "StatefulPartitionedCall/Const_327", "shape": [], "dtype": "int32"}, {"name": "StatefulPartitionedCall/Reshape_36", "shape": [1, 1, 384], "dtype": "float32"}, {"name": "StatefulPartitionedCall/jax2tf_arg_77/ReadVariableOp", "shape": [384, 6, 64], "dtype": "float32"}, {"name": "StatefulPartitionedCall/Reshape_38", "shape": [1, 1, 6, 64], "dtype": "float32"}, {"name": "StatefulPartitionedCall/Max_2/reduction_indices", "shape": [1], "dtype": "int32"}, {"name": "StatefulPartitionedCall/Const_377", "shape": [], "dtype": "int32"}, {"name": "StatefulPartitionedCall/Const_379", "shape": [], "dtype": "int32"}, {"name": "StatefulPartitionedCall/Const_381", "shape": [], "dtype": "int32"}, {"name": "StatefulPartitionedCall/Const_385", "shape": [], "dtype": "int32"}, {"name": "StatefulPartitionedCall/Const_387", "shape": [], "dtype": "int32"}, {"name": "StatefulPartitionedCall/Const_389", "shape": [], "dtype": "int32"}, {"name": "StatefulPartitionedCall/Sum_12/reduction_indices", "shape": [1], "dtype": "int32"}, {"name": "StatefulPartitionedCall/Const_393", "shape": [], "dtype": "int32"}, {"name": "StatefulPartitionedCall/Const_395", "shape": [], "dtype": "int32"}, {"name": "StatefulPartitionedCall/Const_397", "shape": [], "dtype": "int32"}, {"name": "StatefulPartitionedCall/Const_401", "shape": [], "dtype": "int32"}, {"name": "StatefulPartitionedCall/Const_403", "shape": [], "dtype": "int32"}, {"name": "StatefulPartitionedCall/Const_405", "shape": [], "dtype": "int32"}, {"name": "StatefulPartitionedCall/transpose_37/perm", "shape": [4], "dtype": "int32"}, {"name": "StatefulPartitionedCall/jax2tf_arg_79/ReadVariableOp", "shape": [6, 64, 384], "dtype": "float32"}, {"name": "StatefulPartitionedCall/Sum_13/reduction_indices", "shape": [1], "dtype": "int32"}, {"name": "ConstantFolding/StatefulPartitionedCall/truediv_16_recip", "shape": [], "dtype": "float32"}, {"name": "StatefulPartitionedCall/Const_421", "shape": [], "dtype": "int32"}, {"name": "StatefulPartitionedCall/Const_423", "shape": [], "dtype": "int32"}, {"name": "StatefulPartitionedCall/Reshape_46", "shape": [1, 1, 384], "dtype": "float32"}, {"name": "StatefulPartitionedCall/jax2tf_arg_73/ReadVariableOp", "shape": [384, 1536], "dtype": "float32"}, {"name": "StatefulPartitionedCall/Reshape_47", "shape": [1, 1, 1536], "dtype": "float32"}, {"name": "StatefulPartitionedCall/Const_453", "shape": [], "dtype": "float32"}, {"name": "StatefulPartitionedCall/Const_455", "shape": [], "dtype": "float32"}, {"name": "StatefulPartitionedCall/jax2tf_arg_75/ReadVariableOp", "shape": [1536, 384], "dtype": "float32"}, {"name": "StatefulPartitionedCall/Sum_15/reduction_indices", "shape": [1], "dtype": "int32"}, {"name": "ConstantFolding/StatefulPartitionedCall/truediv_18_recip", "shape": [], "dtype": "float32"}, {"name": "StatefulPartitionedCall/Const_473", "shape": [], "dtype": "int32"}, {"name": "StatefulPartitionedCall/Const_475", "shape": [], "dtype": "int32"}, {"name": "StatefulPartitionedCall/Reshape_52", "shape": [1, 1, 384], "dtype": "float32"}, {"name": "StatefulPartitionedCall/jax2tf_arg_93/ReadVariableOp", "shape": [384, 6, 64], "dtype": "float32"}, {"name": "StatefulPartitionedCall/Reshape_54", "shape": [1, 1, 6, 64], "dtype": "float32"}, {"name": "StatefulPartitionedCall/Max_3/reduction_indices", "shape": [1], "dtype": "int32"}, {"name": "StatefulPartitionedCall/Const_525", "shape": [], "dtype": "int32"}, {"name": "StatefulPartitionedCall/Const_527", "shape": [], "dtype": "int32"}, {"name": "StatefulPartitionedCall/Const_529", "shape": [], "dtype": "int32"}, {"name": "StatefulPartitionedCall/Const_533", "shape": [], "dtype": "int32"}, {"name": "StatefulPartitionedCall/Const_535", "shape": [], "dtype": "int32"}, {"name": "StatefulPartitionedCall/Const_537", "shape": [], "dtype": "int32"}, {"name": "StatefulPartitionedCall/Sum_17/reduction_indices", "shape": [1], "dtype": "int32"}, {"name": "StatefulPartitionedCall/Const_541", "shape": [], "dtype": "int32"}, {"name": "StatefulPartitionedCall/Const_543", "shape": [], "dtype": "int32"}, {"name": "StatefulPartitionedCall/Const_545", "shape": [], "dtype": "int32"}, {"name": "StatefulPartitionedCall/Const_549", "shape": [], "dtype": "int32"}, {"name": "StatefulPartitionedCall/Const_551", "shape": [], "dtype": "int32"}, {"name": "StatefulPartitionedCall/Const_553", "shape": [], "dtype": "int32"}, {"name": "StatefulPartitionedCall/transpose_52/perm", "shape": [4], "dtype": "int32"}, {"name": "StatefulPartitionedCall/jax2tf_arg_95/ReadVariableOp", "shape": [6, 64, 384], "dtype": "float32"}, {"name": "StatefulPartitionedCall/Sum_18/reduction_indices", "shape": [1], "dtype": "int32"}, {"name": "ConstantFolding/StatefulPartitionedCall/truediv_22_recip", "shape": [], "dtype": "float32"}, {"name": "StatefulPartitionedCall/Const_569", "shape": [], "dtype": "int32"}, {"name": "StatefulPartitionedCall/Const_571", "shape": [], "dtype": "int32"}, {"name": "StatefulPartitionedCall/Reshape_62", "shape": [1, 1, 384], "dtype": "float32"}, {"name": "StatefulPartitionedCall/jax2tf_arg_89/ReadVariableOp", "shape": [384, 1536], "dtype": "float32"}, {"name": "StatefulPartitionedCall/Reshape_63", "shape": [1, 1, 1536], "dtype": "float32"}, {"name": "StatefulPartitionedCall/Const_601", "shape": [], "dtype": "float32"}, {"name": "StatefulPartitionedCall/Const_603", "shape": [], "dtype": "float32"}, {"name": "StatefulPartitionedCall/jax2tf_arg_91/ReadVariableOp", "shape": [1536, 384], "dtype": "float32"}, {"name": "StatefulPartitionedCall/Sum_20/reduction_indices", "shape": [1], "dtype": "int32"}, {"name": "ConstantFolding/StatefulPartitionedCall/truediv_24_recip", "shape": [], "dtype": "float32"}, {"name": "StatefulPartitionedCall/Const_621", "shape": [], "dtype": "int32"}, {"name": "StatefulPartitionedCall/Const_623", "shape": [], "dtype": "int32"}, {"name": "StatefulPartitionedCall/Reshape_68", "shape": [1, 1, 384], "dtype": "float32"}, {"name": "StatefulPartitionedCall/jax2tf_arg_109/ReadVariableOp", "shape": [384, 6, 64], "dtype": "float32"}, {"name": "StatefulPartitionedCall/Reshape_70", "shape": [1, 1, 6, 64], "dtype": "float32"}, {"name": "StatefulPartitionedCall/Max_4/reduction_indices", "shape": [1], "dtype": "int32"}, {"name": "StatefulPartitionedCall/Const_673", "shape": [], "dtype": "int32"}, {"name": "StatefulPartitionedCall/Const_675", "shape": [], "dtype": "int32"}, {"name": "StatefulPartitionedCall/Const_677", "shape": [], "dtype": "int32"}, {"name": "StatefulPartitionedCall/Const_681", "shape": [], "dtype": "int32"}, {"name": "StatefulPartitionedCall/Const_683", "shape": [], "dtype": "int32"}, {"name": "StatefulPartitionedCall/Const_685", "shape": [], "dtype": "int32"}, {"name": "StatefulPartitionedCall/Sum_22/reduction_indices", "shape": [1], "dtype": "int32"}, {"name": "StatefulPartitionedCall/Const_689", "shape": [], "dtype": "int32"}, {"name": "StatefulPartitionedCall/Const_691", "shape": [], "dtype": "int32"}, {"name": "StatefulPartitionedCall/Const_693", "shape": [], "dtype": "int32"}, {"name": "StatefulPartitionedCall/Const_697", "shape": [], "dtype": "int32"}, {"name": "StatefulPartitionedCall/Const_699", "shape": [], "dtype": "int32"}, {"name": "StatefulPartitionedCall/Const_701", "shape": [], "dtype": "int32"}, {"name": "StatefulPartitionedCall/transpose_67/perm", "shape": [4], "dtype": "int32"}, {"name": "StatefulPartitionedCall/jax2tf_arg_111/ReadVariableOp", "shape": [6, 64, 384], "dtype": "float32"}, {"name": "StatefulPartitionedCall/Sum_23/reduction_indices", "shape": [1], "dtype": "int32"}, {"name": "ConstantFolding/StatefulPartitionedCall/truediv_28_recip", "shape": [], "dtype": "float32"}, {"name": "StatefulPartitionedCall/Const_717", "shape": [], "dtype": "int32"}, {"name": "StatefulPartitionedCall/Const_719", "shape": [], "dtype": "int32"}, {"name": "StatefulPartitionedCall/Reshape_78", "shape": [1, 1, 384], "dtype": "float32"}, {"name": "StatefulPartitionedCall/jax2tf_arg_105/ReadVariableOp", "shape": [384, 1536], "dtype": "float32"}, {"name": "StatefulPartitionedCall/Reshape_79", "shape": [1, 1, 1536], "dtype": "float32"}, {"name": "StatefulPartitionedCall/Const_749", "shape": [], "dtype": "float32"}, {"name": "StatefulPartitionedCall/Const_751", "shape": [], "dtype": "float32"}, {"name": "StatefulPartitionedCall/jax2tf_arg_107/ReadVariableOp", "shape": [1536, 384], "dtype": "float32"}, {"name": "StatefulPartitionedCall/Sum_25/reduction_indices", "shape": [1], "dtype": "int32"}, {"name": "ConstantFolding/StatefulPartitionedCall/truediv_30_recip", "shape": [], "dtype": "float32"}, {"name": "StatefulPartitionedCall/Const_769", "shape": [], "dtype": "int32"}, {"name": "StatefulPartitionedCall/Const_771", "shape": [], "dtype": "int32"}, {"name": "StatefulPartitionedCall/Reshape_84", "shape": [1, 1, 384], "dtype": "float32"}, {"name": "StatefulPartitionedCall/jax2tf_arg_125/ReadVariableOp", "shape": [384, 6, 64], "dtype": "float32"}, {"name": "StatefulPartitionedCall/Reshape_86", "shape": [1, 1, 6, 64], "dtype": "float32"}, {"name": "StatefulPartitionedCall/Max_5/reduction_indices", "shape": [1], "dtype": "int32"}, {"name": "StatefulPartitionedCall/Const_821", "shape": [], "dtype": "int32"}, {"name": "StatefulPartitionedCall/Const_823", "shape": [], "dtype": "int32"}, {"name": "StatefulPartitionedCall/Const_825", "shape": [], "dtype": "int32"}, {"name": "StatefulPartitionedCall/Const_829", "shape": [], "dtype": "int32"}, {"name": "StatefulPartitionedCall/Const_831", "shape": [], "dtype": "int32"}, {"name": "StatefulPartitionedCall/Const_833", "shape": [], "dtype": "int32"}, {"name": "StatefulPartitionedCall/Sum_27/reduction_indices", "shape": [1], "dtype": "int32"}, {"name": "StatefulPartitionedCall/Const_837", "shape": [], "dtype": "int32"}, {"name": "StatefulPartitionedCall/Const_839", "shape": [], "dtype": "int32"}, {"name": "StatefulPartitionedCall/Const_841", "shape": [], "dtype": "int32"}, {"name": "StatefulPartitionedCall/Const_845", "shape": [], "dtype": "int32"}, {"name": "StatefulPartitionedCall/Const_847", "shape": [], "dtype": "int32"}, {"name": "StatefulPartitionedCall/Const_849", "shape": [], "dtype": "int32"}, {"name": "StatefulPartitionedCall/transpose_82/perm", "shape": [4], "dtype": "int32"}, {"name": "StatefulPartitionedCall/jax2tf_arg_127/ReadVariableOp", "shape": [6, 64, 384], "dtype": "float32"}, {"name": "StatefulPartitionedCall/Sum_28/reduction_indices", "shape": [1], "dtype": "int32"}, {"name": "ConstantFolding/StatefulPartitionedCall/truediv_34_recip", "shape": [], "dtype": "float32"}, {"name": "StatefulPartitionedCall/Const_865", "shape": [], "dtype": "int32"}, {"name": "StatefulPartitionedCall/Const_867", "shape": [], "dtype": "int32"}, {"name": "StatefulPartitionedCall/Reshape_94", "shape": [1, 1, 384], "dtype": "float32"}, {"name": "StatefulPartitionedCall/jax2tf_arg_121/ReadVariableOp", "shape": [384, 1536], "dtype": "float32"}, {"name": "StatefulPartitionedCall/Reshape_95", "shape": [1, 1, 1536], "dtype": "float32"}, {"name": "StatefulPartitionedCall/Const_897", "shape": [], "dtype": "float32"}, {"name": "StatefulPartitionedCall/Const_899", "shape": [], "dtype": "float32"}, {"name": "StatefulPartitionedCall/jax2tf_arg_123/ReadVariableOp", "shape": [1536, 384], "dtype": "float32"}, {"name": "StatefulPartitionedCall/Sum_30/reduction_indices", "shape": [1], "dtype": "int32"}, {"name": "ConstantFolding/StatefulPartitionedCall/truediv_36_recip", "shape": [], "dtype": "float32"}, {"name": "StatefulPartitionedCall/Const_917", "shape": [], "dtype": "int32"}, {"name": "StatefulPartitionedCall/Const_919", "shape": [], "dtype": "int32"}, {"name": "StatefulPartitionedCall/Reshape_100", "shape": [1, 1, 384], "dtype": "float32"}, {"name": "StatefulPartitionedCall/jax2tf_arg_141/ReadVariableOp", "shape": [384, 6, 64], "dtype": "float32"}, {"name": "StatefulPartitionedCall/Reshape_102", "shape": [1, 1, 6, 64], "dtype": "float32"}, {"name": "StatefulPartitionedCall/Max_6/reduction_indices", "shape": [1], "dtype": "int32"}, {"name": "StatefulPartitionedCall/Const_969", "shape": [], "dtype": "int32"}, {"name": "StatefulPartitionedCall/Const_971", "shape": [], "dtype": "int32"}, {"name": "StatefulPartitionedCall/Const_973", "shape": [], "dtype": "int32"}, {"name": "StatefulPartitionedCall/Const_977", "shape": [], "dtype": "int32"}, {"name": "StatefulPartitionedCall/Const_979", "shape": [], "dtype": "int32"}, {"name": "StatefulPartitionedCall/Const_981", "shape": [], "dtype": "int32"}, {"name": "StatefulPartitionedCall/Sum_32/reduction_indices", "shape": [1], "dtype": "int32"}, {"name": "StatefulPartitionedCall/Const_985", "shape": [], "dtype": "int32"}, {"name": "StatefulPartitionedCall/Const_987", "shape": [], "dtype": "int32"}, {"name": "StatefulPartitionedCall/Const_989", "shape": [], "dtype": "int32"}, {"name": "StatefulPartitionedCall/Const_993", "shape": [], "dtype": "int32"}, {"name": "StatefulPartitionedCall/Const_995", "shape": [], "dtype": "int32"}, {"name": "StatefulPartitionedCall/Const_997", "shape": [], "dtype": "int32"}, {"name": "StatefulPartitionedCall/transpose_97/perm", "shape": [4], "dtype": "int32"}, {"name": "StatefulPartitionedCall/jax2tf_arg_143/ReadVariableOp", "shape": [6, 64, 384], "dtype": "float32"}, {"name": "StatefulPartitionedCall/Sum_33/reduction_indices", "shape": [1], "dtype": "int32"}, {"name": "ConstantFolding/StatefulPartitionedCall/truediv_40_recip", "shape": [], "dtype": "float32"}, {"name": "StatefulPartitionedCall/Const_1013", "shape": [], "dtype": "int32"}, {"name": "StatefulPartitionedCall/Const_1015", "shape": [], "dtype": "int32"}, {"name": "StatefulPartitionedCall/Reshape_110", "shape": [1, 1, 384], "dtype": "float32"}, {"name": "StatefulPartitionedCall/jax2tf_arg_137/ReadVariableOp", "shape": [384, 1536], "dtype": "float32"}, {"name": "StatefulPartitionedCall/Reshape_111", "shape": [1, 1, 1536], "dtype": "float32"}, {"name": "StatefulPartitionedCall/Const_1045", "shape": [], "dtype": "float32"}, {"name": "StatefulPartitionedCall/Const_1047", "shape": [], "dtype": "float32"}, {"name": "StatefulPartitionedCall/jax2tf_arg_139/ReadVariableOp", "shape": [1536, 384], "dtype": "float32"}, {"name": "StatefulPartitionedCall/Sum_35/reduction_indices", "shape": [1], "dtype": "int32"}, {"name": "ConstantFolding/StatefulPartitionedCall/truediv_42_recip", "shape": [], "dtype": "float32"}, {"name": "StatefulPartitionedCall/Const_1065", "shape": [], "dtype": "int32"}, {"name": "StatefulPartitionedCall/Const_1067", "shape": [], "dtype": "int32"}, {"name": "StatefulPartitionedCall/Reshape_116", "shape": [1, 1, 384], "dtype": "float32"}, {"name": "StatefulPartitionedCall/jax2tf_arg_157/ReadVariableOp", "shape": [384, 6, 64], "dtype": "float32"}, {"name": "StatefulPartitionedCall/Reshape_118", "shape": [1, 1, 6, 64], "dtype": "float32"}, {"name": "StatefulPartitionedCall/Max_7/reduction_indices", "shape": [1], "dtype": "int32"}, {"name": "StatefulPartitionedCall/Const_1117", "shape": [], "dtype": "int32"}, {"name": "StatefulPartitionedCall/Const_1119", "shape": [], "dtype": "int32"}, {"name": "StatefulPartitionedCall/Const_1121", "shape": [], "dtype": "int32"}, {"name": "StatefulPartitionedCall/Const_1125", "shape": [], "dtype": "int32"}, {"name": "StatefulPartitionedCall/Const_1127", "shape": [], "dtype": "int32"}, {"name": "StatefulPartitionedCall/Const_1129", "shape": [], "dtype": "int32"}, {"name": "StatefulPartitionedCall/Sum_37/reduction_indices", "shape": [1], "dtype": "int32"}, {"name": "StatefulPartitionedCall/Const_1133", "shape": [], "dtype": "int32"}, {"name": "StatefulPartitionedCall/Const_1135", "shape": [], "dtype": "int32"}, {"name": "StatefulPartitionedCall/Const_1137", "shape": [], "dtype": "int32"}, {"name": "StatefulPartitionedCall/Const_1141", "shape": [], "dtype": "int32"}, {"name": "StatefulPartitionedCall/Const_1143", "shape": [], "dtype": "int32"}, {"name": "StatefulPartitionedCall/Const_1145", "shape": [], "dtype": "int32"}, {"name": "StatefulPartitionedCall/transpose_112/perm", "shape": [4], "dtype": "int32"}, {"name": "StatefulPartitionedCall/jax2tf_arg_159/ReadVariableOp", "shape": [6, 64, 384], "dtype": "float32"}, {"name": "StatefulPartitionedCall/Sum_38/reduction_indices", "shape": [1], "dtype": "int32"}, {"name": "ConstantFolding/StatefulPartitionedCall/truediv_46_recip", "shape": [], "dtype": "float32"}, {"name": "StatefulPartitionedCall/Const_1161", "shape": [], "dtype": "int32"}, {"name": "StatefulPartitionedCall/Const_1163", "shape": [], "dtype": "int32"}, {"name": "StatefulPartitionedCall/Reshape_126", "shape": [1, 1, 384], "dtype": "float32"}, {"name": "StatefulPartitionedCall/jax2tf_arg_153/ReadVariableOp", "shape": [384, 1536], "dtype": "float32"}, {"name": "StatefulPartitionedCall/Reshape_127", "shape": [1, 1, 1536], "dtype": "float32"}, {"name": "StatefulPartitionedCall/Const_1193", "shape": [], "dtype": "float32"}, {"name": "StatefulPartitionedCall/Const_1195", "shape": [], "dtype": "float32"}, {"name": "StatefulPartitionedCall/jax2tf_arg_155/ReadVariableOp", "shape": [1536, 384], "dtype": "float32"}, {"name": "StatefulPartitionedCall/Sum_40/reduction_indices", "shape": [1], "dtype": "int32"}, {"name": "ConstantFolding/StatefulPartitionedCall/truediv_48_recip", "shape": [], "dtype": "float32"}, {"name": "StatefulPartitionedCall/Const_1213", "shape": [], "dtype": "int32"}, {"name": "StatefulPartitionedCall/Const_1215", "shape": [], "dtype": "int32"}, {"name": "StatefulPartitionedCall/Reshape_132", "shape": [1, 1, 384], "dtype": "float32"}, {"name": "StatefulPartitionedCall/jax2tf_arg_173/ReadVariableOp", "shape": [384, 6, 64], "dtype": "float32"}, {"name": "StatefulPartitionedCall/Reshape_134", "shape": [1, 1, 6, 64], "dtype": "float32"}, {"name": "StatefulPartitionedCall/Max_8/reduction_indices", "shape": [1], "dtype": "int32"}, {"name": "StatefulPartitionedCall/Const_1265", "shape": [], "dtype": "int32"}, {"name": "StatefulPartitionedCall/Const_1267", "shape": [], "dtype": "int32"}, {"name": "StatefulPartitionedCall/Const_1269", "shape": [], "dtype": "int32"}, {"name": "StatefulPartitionedCall/Const_1273", "shape": [], "dtype": "int32"}, {"name": "StatefulPartitionedCall/Const_1275", "shape": [], "dtype": "int32"}, {"name": "StatefulPartitionedCall/Const_1277", "shape": [], "dtype": "int32"}, {"name": "StatefulPartitionedCall/Sum_42/reduction_indices", "shape": [1], "dtype": "int32"}, {"name": "StatefulPartitionedCall/Const_1281", "shape": [], "dtype": "int32"}, {"name": "StatefulPartitionedCall/Const_1283", "shape": [], "dtype": "int32"}, {"name": "StatefulPartitionedCall/Const_1285", "shape": [], "dtype": "int32"}, {"name": "StatefulPartitionedCall/Const_1289", "shape": [], "dtype": "int32"}, {"name": "StatefulPartitionedCall/Const_1291", "shape": [], "dtype": "int32"}, {"name": "StatefulPartitionedCall/Const_1293", "shape": [], "dtype": "int32"}, {"name": "StatefulPartitionedCall/transpose_127/perm", "shape": [4], "dtype": "int32"}, {"name": "StatefulPartitionedCall/jax2tf_arg_175/ReadVariableOp", "shape": [6, 64, 384], "dtype": "float32"}, {"name": "StatefulPartitionedCall/Sum_43/reduction_indices", "shape": [1], "dtype": "int32"}, {"name": "ConstantFolding/StatefulPartitionedCall/truediv_52_recip", "shape": [], "dtype": "float32"}, {"name": "StatefulPartitionedCall/Const_1309", "shape": [], "dtype": "int32"}, {"name": "StatefulPartitionedCall/Const_1311", "shape": [], "dtype": "int32"}, {"name": "StatefulPartitionedCall/Reshape_142", "shape": [1, 1, 384], "dtype": "float32"}, {"name": "StatefulPartitionedCall/jax2tf_arg_169/ReadVariableOp", "shape": [384, 1536], "dtype": "float32"}, {"name": "StatefulPartitionedCall/Reshape_143", "shape": [1, 1, 1536], "dtype": "float32"}, {"name": "StatefulPartitionedCall/Const_1341", "shape": [], "dtype": "float32"}, {"name": "StatefulPartitionedCall/Const_1343", "shape": [], "dtype": "float32"}, {"name": "StatefulPartitionedCall/jax2tf_arg_171/ReadVariableOp", "shape": [1536, 384], "dtype": "float32"}, {"name": "StatefulPartitionedCall/Sum_45/reduction_indices", "shape": [1], "dtype": "int32"}, {"name": "ConstantFolding/StatefulPartitionedCall/truediv_54_recip", "shape": [], "dtype": "float32"}, {"name": "StatefulPartitionedCall/Const_1361", "shape": [], "dtype": "int32"}, {"name": "StatefulPartitionedCall/Const_1363", "shape": [], "dtype": "int32"}, {"name": "StatefulPartitionedCall/Reshape_148", "shape": [1, 1, 384], "dtype": "float32"}, {"name": "StatefulPartitionedCall/jax2tf_arg_189/ReadVariableOp", "shape": [384, 6, 64], "dtype": "float32"}, {"name": "StatefulPartitionedCall/Reshape_150", "shape": [1, 1, 6, 64], "dtype": "float32"}, {"name": "StatefulPartitionedCall/Max_9/reduction_indices", "shape": [1], "dtype": "int32"}, {"name": "StatefulPartitionedCall/Const_1413", "shape": [], "dtype": "int32"}, {"name": "StatefulPartitionedCall/Const_1415", "shape": [], "dtype": "int32"}, {"name": "StatefulPartitionedCall/Const_1417", "shape": [], "dtype": "int32"}, {"name": "StatefulPartitionedCall/Const_1421", "shape": [], "dtype": "int32"}, {"name": "StatefulPartitionedCall/Const_1423", "shape": [], "dtype": "int32"}, {"name": "StatefulPartitionedCall/Const_1425", "shape": [], "dtype": "int32"}, {"name": "StatefulPartitionedCall/Sum_47/reduction_indices", "shape": [1], "dtype": "int32"}, {"name": "StatefulPartitionedCall/Const_1429", "shape": [], "dtype": "int32"}, {"name": "StatefulPartitionedCall/Const_1431", "shape": [], "dtype": "int32"}, {"name": "StatefulPartitionedCall/Const_1433", "shape": [], "dtype": "int32"}, {"name": "StatefulPartitionedCall/Const_1437", "shape": [], "dtype": "int32"}, {"name": "StatefulPartitionedCall/Const_1439", "shape": [], "dtype": "int32"}, {"name": "StatefulPartitionedCall/Const_1441", "shape": [], "dtype": "int32"}, {"name": "StatefulPartitionedCall/transpose_142/perm", "shape": [4], "dtype": "int32"}, {"name": "StatefulPartitionedCall/jax2tf_arg_191/ReadVariableOp", "shape": [6, 64, 384], "dtype": "float32"}, {"name": "StatefulPartitionedCall/Sum_48/reduction_indices", "shape": [1], "dtype": "int32"}, {"name": "ConstantFolding/StatefulPartitionedCall/truediv_58_recip", "shape": [], "dtype": "float32"}, {"name": "StatefulPartitionedCall/Const_1457", "shape": [], "dtype": "int32"}, {"name": "StatefulPartitionedCall/Const_1459", "shape": [], "dtype": "int32"}, {"name": "StatefulPartitionedCall/Reshape_158", "shape": [1, 1, 384], "dtype": "float32"}, {"name": "StatefulPartitionedCall/jax2tf_arg_185/ReadVariableOp", "shape": [384, 1536], "dtype": "float32"}, {"name": "StatefulPartitionedCall/Reshape_159", "shape": [1, 1, 1536], "dtype": "float32"}, {"name": "StatefulPartitionedCall/Const_1489", "shape": [], "dtype": "float32"}, {"name": "StatefulPartitionedCall/Const_1491", "shape": [], "dtype": "float32"}, {"name": "StatefulPartitionedCall/jax2tf_arg_187/ReadVariableOp", "shape": [1536, 384], "dtype": "float32"}, {"name": "StatefulPartitionedCall/Sum_50/reduction_indices", "shape": [1], "dtype": "int32"}, {"name": "ConstantFolding/StatefulPartitionedCall/truediv_60_recip", "shape": [], "dtype": "float32"}, {"name": "StatefulPartitionedCall/Const_1509", "shape": [], "dtype": "int32"}, {"name": "StatefulPartitionedCall/Const_1511", "shape": [], "dtype": "int32"}, {"name": "StatefulPartitionedCall/Reshape_164", "shape": [1, 1, 384], "dtype": "float32"}, {"name": "StatefulPartitionedCall/jax2tf_arg_45/ReadVariableOp", "shape": [384, 6, 64], "dtype": "float32"}, {"name": "StatefulPartitionedCall/Reshape_166", "shape": [1, 1, 6, 64], "dtype": "float32"}, {"name": "StatefulPartitionedCall/Max_10/reduction_indices", "shape": [1], "dtype": "int32"}, {"name": "StatefulPartitionedCall/Const_1561", "shape": [], "dtype": "int32"}, {"name": "StatefulPartitionedCall/Const_1563", "shape": [], "dtype": "int32"}, {"name": "StatefulPartitionedCall/Const_1565", "shape": [], "dtype": "int32"}, {"name": "StatefulPartitionedCall/Const_1569", "shape": [], "dtype": "int32"}, {"name": "StatefulPartitionedCall/Const_1571", "shape": [], "dtype": "int32"}, {"name": "StatefulPartitionedCall/Const_1573", "shape": [], "dtype": "int32"}, {"name": "StatefulPartitionedCall/Sum_52/reduction_indices", "shape": [1], "dtype": "int32"}, {"name": "StatefulPartitionedCall/Const_1577", "shape": [], "dtype": "int32"}, {"name": "StatefulPartitionedCall/Const_1579", "shape": [], "dtype": "int32"}, {"name": "StatefulPartitionedCall/Const_1581", "shape": [], "dtype": "int32"}, {"name": "StatefulPartitionedCall/Const_1585", "shape": [], "dtype": "int32"}, {"name": "StatefulPartitionedCall/Const_1587", "shape": [], "dtype": "int32"}, {"name": "StatefulPartitionedCall/Const_1589", "shape": [], "dtype": "int32"}, {"name": "StatefulPartitionedCall/transpose_157/perm", "shape": [4], "dtype": "int32"}, {"name": "StatefulPartitionedCall/jax2tf_arg_47/ReadVariableOp", "shape": [6, 64, 384], "dtype": "float32"}, {"name": "StatefulPartitionedCall/Sum_53/reduction_indices", "shape": [1], "dtype": "int32"}, {"name": "ConstantFolding/StatefulPartitionedCall/truediv_64_recip", "shape": [], "dtype": "float32"}, {"name": "StatefulPartitionedCall/Const_1605", "shape": [], "dtype": "int32"}, {"name": "StatefulPartitionedCall/Const_1607", "shape": [], "dtype": "int32"}, {"name": "StatefulPartitionedCall/Reshape_174", "shape": [1, 1, 384], "dtype": "float32"}, {"name": "StatefulPartitionedCall/jax2tf_arg_41/ReadVariableOp", "shape": [384, 1536], "dtype": "float32"}, {"name": "StatefulPartitionedCall/Reshape_175", "shape": [1, 1, 1536], "dtype": "float32"}, {"name": "StatefulPartitionedCall/Const_1637", "shape": [], "dtype": "float32"}, {"name": "StatefulPartitionedCall/Const_1639", "shape": [], "dtype": "float32"}, {"name": "StatefulPartitionedCall/jax2tf_arg_43/ReadVariableOp", "shape": [1536, 384], "dtype": "float32"}, {"name": "StatefulPartitionedCall/Sum_55/reduction_indices", "shape": [1], "dtype": "int32"}, {"name": "ConstantFolding/StatefulPartitionedCall/truediv_66_recip", "shape": [], "dtype": "float32"}, {"name": "StatefulPartitionedCall/Const_1657", "shape": [], "dtype": "int32"}, {"name": "StatefulPartitionedCall/Const_1659", "shape": [], "dtype": "int32"}, {"name": "StatefulPartitionedCall/Reshape_180", "shape": [1, 1, 384], "dtype": "float32"}, {"name": "StatefulPartitionedCall/jax2tf_arg_61/ReadVariableOp", "shape": [384, 6, 64], "dtype": "float32"}, {"name": "StatefulPartitionedCall/Reshape_182", "shape": [1, 1, 6, 64], "dtype": "float32"}, {"name": "StatefulPartitionedCall/Max_11/reduction_indices", "shape": [1], "dtype": "int32"}, {"name": "StatefulPartitionedCall/Const_1709", "shape": [], "dtype": "int32"}, {"name": "StatefulPartitionedCall/Const_1711", "shape": [], "dtype": "int32"}, {"name": "StatefulPartitionedCall/Const_1713", "shape": [], "dtype": "int32"}, {"name": "StatefulPartitionedCall/Const_1717", "shape": [], "dtype": "int32"}, {"name": "StatefulPartitionedCall/Const_1719", "shape": [], "dtype": "int32"}, {"name": "StatefulPartitionedCall/Const_1721", "shape": [], "dtype": "int32"}, {"name": "StatefulPartitionedCall/Sum_57/reduction_indices", "shape": [1], "dtype": "int32"}, {"name": "StatefulPartitionedCall/Const_1725", "shape": [], "dtype": "int32"}, {"name": "StatefulPartitionedCall/Const_1727", "shape": [], "dtype": "int32"}, {"name": "StatefulPartitionedCall/Const_1729", "shape": [], "dtype": "int32"}, {"name": "StatefulPartitionedCall/Const_1733", "shape": [], "dtype": "int32"}, {"name": "StatefulPartitionedCall/Const_1735", "shape": [], "dtype": "int32"}, {"name": "StatefulPartitionedCall/Const_1737", "shape": [], "dtype": "int32"}, {"name": "StatefulPartitionedCall/transpose_172/perm", "shape": [4], "dtype": "int32"}, {"name": "StatefulPartitionedCall/jax2tf_arg_63/ReadVariableOp", "shape": [6, 64, 384], "dtype": "float32"}, {"name": "StatefulPartitionedCall/Sum_58/reduction_indices", "shape": [1], "dtype": "int32"}, {"name": "ConstantFolding/StatefulPartitionedCall/truediv_70_recip", "shape": [], "dtype": "float32"}, {"name": "StatefulPartitionedCall/Const_1753", "shape": [], "dtype": "int32"}, {"name": "StatefulPartitionedCall/Const_1755", "shape": [], "dtype": "int32"}, {"name": "StatefulPartitionedCall/Reshape_190", "shape": [1, 1, 384], "dtype": "float32"}, {"name": "StatefulPartitionedCall/jax2tf_arg_57/ReadVariableOp", "shape": [384, 1536], "dtype": "float32"}, {"name": "StatefulPartitionedCall/Reshape_191", "shape": [1, 1, 1536], "dtype": "float32"}, {"name": "StatefulPartitionedCall/Const_1785", "shape": [], "dtype": "float32"}, {"name": "StatefulPartitionedCall/Const_1787", "shape": [], "dtype": "float32"}, {"name": "StatefulPartitionedCall/jax2tf_arg_59/ReadVariableOp", "shape": [1536, 384], "dtype": "float32"}, {"name": "StatefulPartitionedCall/Sum_60/reduction_indices", "shape": [1], "dtype": "int32"}, {"name": "ConstantFolding/StatefulPartitionedCall/truediv_72_recip", "shape": [], "dtype": "float32"}, {"name": "StatefulPartitionedCall/Const_1805", "shape": [], "dtype": "int32"}, {"name": "StatefulPartitionedCall/Const_1807", "shape": [], "dtype": "int32"}, {"name": "StatefulPartitionedCall/Reshape_196", "shape": [1, 1, 384], "dtype": "float32"}, {"name": "StatefulPartitionedCall/ScatterNd", "shape": [3], "dtype": "int32"}, {"name": "StatefulPartitionedCall/Const_1845", "shape": [], "dtype": "int32"}, {"name": "StatefulPartitionedCall/Const_1847", "shape": [], "dtype": "int32"}, {"name": "StatefulPartitionedCall/Const_1851", "shape": [], "dtype": "int32"}, {"name": "StatefulPartitionedCall/Const_1853", "shape": [], "dtype": "int32"}, {"name": "StatefulPartitionedCall/clip_by_value_1/y", "shape": [], "dtype": "int32"}, {"name": "StatefulPartitionedCall/ones_like", "shape": [3], "dtype": "int32"}, {"name": "StatefulPartitionedCall/Const_1857", "shape": [], "dtype": "int32"}, {"name": "StatefulPartitionedCall/Const_1861", "shape": [], "dtype": "int32"}, {"name": "StatefulPartitionedCall/jax2tf_arg_197/ReadVariableOp", "shape": [384, 1024], "dtype": "float32"}, {"name": "StatefulPartitionedCall/Reshape_199", "shape": [1, 1024], "dtype": "float32"}, {"name": "StatefulPartitionedCall/Sum_62/reduction_indices", "shape": [1], "dtype": "int32"}, {"name": "StatefulPartitionedCall/Const_1869", "shape": [], "dtype": "int32"}, {"name": "StatefulPartitionedCall/strided_slice/stack", "shape": [1], "dtype": "int32"}, {"name": "StatefulPartitionedCall/strided_slice/stack_1", "shape": [1], "dtype": "int32"}, {"name": "StatefulPartitionedCall/strided_slice/stack_2", "shape": [1], "dtype": "int32"}, {"name": "StatefulPartitionedCall/Const_1873", "shape": [], "dtype": "int32"}, {"name": "StatefulPartitionedCall/Const_1875", "shape": [], "dtype": "float32"}]}]}